models/cuda_training_20241222_195554/ppo_final.pt (torch, 705553 bytes, 12 tensors)

log_std f4 [8]
0.02764285 0.028606394 0.017226912 -0.01641903 -0.0055712657 0.013139606 0.016492106 -0.014398445
00000000: 4273 e23c f557 ea3c 741f 8d3c 3481 86bc
00000010: 2a8f b6bb 8147 573c 741a 873c 75e7 6bbc

features.0.weight f4 [256, 488]
0.034609035 0.03757269 -0.010605019 0.041583575 -0.009918354 0.009134635 -0.022038892 0.026585035
0.03990557 -0.033209786 0.039346665 0.008472305 0.033444308 0.0061306544 0.02182763 -0.0063914172
0.03489636 0.006690994 -0.02113285 0.011538703 -0.020856567 -0.0053086914 -0.018385923 0.030029394
-0.035733107 -0.020868957 -0.012782503 -0.027218325 0.0042725243 -0.044710133 0.040881827 -0.03845362
0.034948036 0.007533442 -0.014698682 0.02797328 0.007055033 0.03657478 0.004948668 -0.014276274
0.012162738 -0.012275714 0.019051328 0.04041616 0.026167527 -0.01978987 0.02613154 0.008099608
0.02298861 -0.027590998 -0.04481105 -0.017489718 -0.034721494 0.03714405 0.0130385645 0.018750563
0.014316469 -0.00078747794 0.03542701 -0.032163437 0.0028502345 -0.03089714 0.013958439 -0.015589453
0.013870813 -0.009431176 0.0375448 -0.026830355 -0.026997669 -0.026999298 0.04071586 0.0150855705
0.043559045 -0.0373585 -0.044900123 -0.035415944 -0.030451205 0.018335305 0.01620933 0.03761418
-0.023377478 -0.030859642 0.024018146 -0.018297477 0.02747415 -0.010742094 0.025895305 -0.035171688
-0.02284442 0.013801109 0.009569969 -0.011541441 0.0269828 0.03077352 -0.032827057 -0.024167078
0.04145007 -0.015274851 -0.016048202 -0.04380095 -0.025923563 0.011308081 -0.005975049 -0.032859314
0.0010618344 -0.030921645 -0.038405113 -0.024927326 -0.039618988 -0.028823778 0.04525017 0.008549966
0.013949733 -0.042220633 -0.029730752 -0.015067674 0.007078588 -0.039832167 -0.019504705 -0.027100453
0.00012544915 -0.016844321 -0.0031368732 -0.030674856 -0.031071648 -0.026409358 -0.015495077 -0.035729066
0.037955746 -0.008984044 0.038948327 0.014104657 -0.038332697 0.031326964 -0.012455221 -0.017352356
-0.037575524 -0.045003537 0.01295162 -0.009888489 0.017623827 -0.03714969 0.03360819 -0.033229053
-0.007816553 0.0094550885 0.023369618 0.036545224 0.04123719 -0.0358939 0.011392441 -0.019470887
-0.004960671 -0.033882555 0.04123263 -0.033224378 0.024193473 0.015908923 0.014710065 -0.024473904
0.0411463 0.0099476315 0.005823262 -0.03989253 0.01900293 -0.006791115 -0.020738311 0.03888268
0.010092419 -0.025045646 -0.022911832 -0.0021618009 0.025275826 -0.011567473 -0.025828712 -0.015501659
-0.03381849 0.016143993 0.035039157 -0.042617 0.010513496 0.02338501 0.008208394 -0.016121006
0.023627207 0.023788862 0.016926892 -0.007954534 -0.0119869895 0.004842799 -0.007996757 -0.013489872
0.028935537 0.03890319 -0.0044814013 -0.010135334 0.000660561 -0.0027028657 0.010882907 0.012685578
-0.04111485 -0.016705554 0.03812141 0.017634325 -0.0022515133 -0.02729226 -0.027695114 -0.04054946
-0.014755625 0.01528715 0.028863773 0.020900056 -0.040014267 -0.027222399 -0.0071440227 0.043789856
0.0065483376 -0.011723053 0.01872801 -0.017241698 -0.029299887 0.03304044 -0.020583382 -0.009074703
-0.045032673 0.03029646 0.034296505 0.016497795 -0.03156412 -0.04467667 -0.036765613 0.033756264
0.021733366 0.03809312 0.023714475 0.011456944 -0.00044329464 -0.034426488 -0.038784254 -0.042341243
0.018530942 -0.022225076 -0.009110276 -0.0260519 -0.008248873 -0.031861108 -0.029578738 0.015015844
-0.01345345 0.027945809 -0.014522331 -0.03320703 -0.007987015 -0.021943484 -0.0138493255 -0.043094818
00000000: 34c2 0d3d d2e5 193d acc0 2dbc 8a53 2a3d
00000010: 9880 22bc 70a9 153c e88a b4bc dcc8 d93c
00000020: 0674 233d fc06 08bd f829 213d 6ccf 0a3c
00000030: e6fc 083d a8e3 c83b dccf b23c 186f d1bb
00000040: 7cef 0e3d 2040 db3b cc1e adbc d40c 3d3c
00000050: 64db aabc 88f4 adbb 139e 96bc 3400 f63c
00000060: e15c 12bd 60f5 aabc b46d 51bc f7f8 debc
00000070: 8800 8c3b f921 37bd b473 273d 8b81 1dbd
00000080: ac25 0f3d 18db f63b bed2 70bc 3828 e53c
00000090: e82d e73b 70cf 153d 7028 a23b 08e7 69bc
000000a0: 3846 473c 1420 49bc 8811 9c3c 6a8b 253d
000000b0: 485d d63c 5e1e a2bc d011 d63c 38b4 043c
000000c0: 9c52 bc3c 8406 e2bc cb8b 37bd 9946 8fbc
000000d0: 2038 0ebd 5c24 183d b49f 553c c89a 993c
000000e0: a08f 6a3c c06e 4eba ea1b 113d cfbd 03bd
000000f0: 00cb 3a3b 001c fdbc f0b1 643c e86a 7fbc
00000100: 6842 633c 3885 1abc 94c8 193d 55cb dbbc
00000110: 372a ddbc a22d ddbc acc5 263d 7829 773c
00000120: f86a 323d 3a05 19bd 31e9 37bd 4f10 11bd
00000130: ce74 f9bc ec33 963c 6ec9 843c 5411 1a3d
00000140: 2082 bfbc 5ccd fcbc b4c1 c43c 97e4 95bc
00000150: 7811 e13c 9cff 2fbc 6422 d43c 3010 10bd
00000160: 3924 bbbc 0c1e 623c 5ccb 1c3c 5018 3dbc
00000170: 080b dd3c c018 fc3c aa75 06bd 09fa c5bc
00000180: 8cc7 293d 5e43 7abc 8577 83bc a068 33bd
00000190: a75d d4bc 8845 393c 58ca c3bb 7d97 06bd
000001a0: 402d 8b3a 644f fdbc ae4e 1dbd 6434 ccbc
000001b0: 8547 22bd d81f ecbc 3e58 393d 2815 0c3c
000001c0: 6c8d 643c 8bef 2cbd e88d f3bc 68de 76bc
000001d0: 80f3 e73b 0e27 23bd 55c8 9fbc c501 debc
000001e0: 008b 0339 1afd 89bc 0094 4dbb d649 fbbc
000001f0: f889 febc 7058 d8bc 10df 7dbc a458 12bd
00000200: 7c77 1b3d d031 13bc 4888 1f3d 3817 673c
00000210: bf02 1dbd b450 003d fc10 4cbc 8726 8ebc
00000220: cbe8 19bd a155 38bd 0833 543c 5403 22bc
00000230: d85f 903c 462a 18bd bea8 093d 301b 08bd
00000240: 0011 00bc 84e9 1a3c a471 bf3c 72b0 153d
00000250: 54e8 283d 7b05 13bd 5ca7 3a3c 6981 9fbc
00000260: 208d a2bb 6fc8 0abd 8ce3 283d 4916 08bd
00000270: 6431 c63c 6e53 823c 7c02 713c 7f7d c8bc
00000280: 0689 283d 64fb 223c 10d1 be3b 5966 23bd
00000290: 08ac 9b3c 0088 debb 64e3 a9bc 7243 1f3d
000002a0: ac5a 253c 872c cdbc 98b1 bbbc 00ad 0dbb
000002b0: 400f cf3c 8085 3dbc bc96 d3bc acfa 7dbc
000002c0: 4285 0abd 6840 843c 3885 0f3d 2a8f 2ebd
000002d0: cc40 2c3c ec91 bf3c 807c 063c 3310 84bc
000002e0: d88d c13c dce0 c23c 44aa 8a3c bc53 02bc
000002f0: 1465 44bc 58b0 9e3b d404 03bc a004 5dbc
00000300: 380a ed3c f458 1f3d b8d8 92bb ac0e 26bc
00000310: 8029 2d3a 9022 31bb 384e 323c 2cd7 4f3c
00000320: 0c68 28bd 16da 88bc 3225 1c3d dc75 903c
00000330: 208e 13bb 0594 dfbc dde0 e2bc 3117 26bd
00000340: 94c1 71bc f476 7a3c b873 ec3c 9836 ab3c
00000350: 00e6 23bd 8201 dfbc 6818 eabb fe5c 333d
00000360: 7093 d63b 0c12 40bc 7c6b 993c 763e 8dbc
00000370: 5106 f0bc 6a55 073d 7b9e a8bc 10ae 14bc
00000380: 2e74 38bd 4830 f83c 7e7a 0c3d 6226 873c
00000390: 6149 01bd e2fe 36bd 8a97 16bd 0244 0a3d
000003a0: 2c0a b23c 8807 1c3d dc44 c23c e8b5 3b3c
000003b0: 006a e8b9 ca02 0dbd 3ddc 1ebd 036e 2dbd
000003c0: 34ce 973c 5d11 b6bc 4443 15bc cb6a d5bc
000003d0: 4826 07bc cb80 02bd 1c4f f2bc 0405 763c
000003e0: dc6b 5cbc 9cee e43c 12ef 6dbc 1804 08bd
000003f0: f8db 02bc d2c2 b3bc 48e8 62bc 3184 30bd

features.0.bias f4 [256]
0.027140252 0.0041921786 0.039831866 -0.006922016 -0.034661908 -0.03856714 0.032693192 -0.023802105
0.0242456 0.019404605 -0.04208363 0.036842886 0.027662516 0.020691272 0.0059261806 0.036589637
-0.008303553 0.03237413 0.033239882 -0.014391186 0.04163249 -0.0046818475 -0.021907771 0.037465766
0.003512148 -0.0032964754 -0.0043327073 -0.04036899 0.02935342 0.039823636 -0.03170981 -0.010098445
0.014675828 -0.016296783 0.03341464 0.03750225 -0.03437193 -0.03241542 0.032951556 0.029276958
0.019419037 0.030989511 0.033999298 -0.0059980266 -0.047194462 0.015997095 0.04362223 0.041585125
0.009776875 -0.0040393537 -0.02406359 0.008604448 -0.029037755 -0.01961039 -0.032758836 -0.020478023
-0.038864255 0.040508177 0.0095593445 -0.021502146 -0.0024054833 -0.021743523 -0.029596193 -0.03327143
0.023609146 0.00095214957 -0.028341155 0.015985454 0.018698953 -0.018649912 -0.03909993 0.032109708
0.011576501 0.009785421 0.023123533 -0.0319151 0.014256469 -0.019841474 -0.012422454 0.035917457
0.005193287 0.008204363 -0.0052850624 -0.014585442 0.048316382 -0.040105306 -0.019331578 -0.0017060876
-0.03267367 -0.02896896 -0.014331744 -0.029935373 -0.013772479 0.024663748 0.0035182363 0.035835985
0.00781441 -0.009150095 0.022070557 0.002111051 0.022852637 -0.041683428 0.002269616 -0.011748441
-0.027835539 0.024443323 -0.0075043654 -0.03138664 0.0065656295 0.04104712 -0.037028298 -0.038743176
0.013380386 0.040328853 -0.00426163 -0.016563829 0.0355888 -0.0033888072 -0.016548596 0.041685022
-0.017988054 -0.008348805 0.035888474 -0.008616064 -0.039344296 -0.048868492 0.017026505 0.010476038
-0.009948874 -0.028225038 -0.011992753 0.025939887 0.006848048 -0.03035232 -0.030124204 -0.04741087
0.03745918 -0.009159309 -0.032548953 -0.0035270657 0.010868924 -0.0061697587 -0.032864057 0.006377034
-0.03762003 0.029606538 8.8348985e-05 -0.009444419 -0.0034071556 -0.039601807 0.025795223 -0.008253535
-0.04018391 -0.002731586 0.026889507 -0.0011399676 -0.009460016 0.043870103 0.03717809 0.025549173
-0.009779495 0.023344664 0.00884251 -0.019746235 0.033111963 0.026688172 -0.034603015 0.014696457
-0.026998302 0.01317216 -0.026265785 -0.014055285 -0.030242387 0.04041885 0.011425345 0.029747255
-0.016436394 0.009138669 0.039029084 0.02071441 0.03258245 -0.021954935 0.0015703299 -0.042981375
0.004284233 -0.041667294 -0.047071323 -0.02483877 -0.0299837 0.010429055 0.00951276 0.009744644
0.00780203 0.04422777 0.016568147 -0.028807491 -0.02914042 -0.039056607 0.03155673 0.037886735
-0.011418253 -0.025219534 0.0036882833 -0.023866782 0.021019727 0.016878294 -0.029442845 -0.011383918
-0.04372169 -0.024916632 -0.016299153 -0.027318053 0.00477802 0.032374408 -0.0047074165 0.0154925855
-0.014803378 -0.03801073 -0.020610046 0.038849942 -0.031750843 -0.025117768 -0.032921497 0.03950125
-0.0074575804 0.0089063905 -0.018733187 0.039010905 0.026552057 0.010345762 -0.03602042 0.020610131
0.038694434 -0.027745176 0.016182322 -0.0454489 -0.019407928 -0.01142482 0.014616219 -0.024440823
-0.0091577 0.032784604 0.028784992 0.012748113 -0.026901953 -0.003755018 -0.016144715 -0.024018828
0.039765403 -0.032419883 -0.0444364 0.014559415 0.0080809705 -0.024767516 0.033866145 0.038477868
00000000: 3c55 de3c 8b5e 893b bd26 233d 14d2 e2bb
00000010: a5f9 0dbd 94f8 1dbd 4ce9 053d a2fc c2bc
00000020: b59e c63c 68f6 9e3c e25f 2cbd 91e8 163d
00000030: 809c e23c be80 a93c 6830 c23b 04df 153d
00000040: a00b 08bc bc9a 043d 8b26 083d 02c9 6bbc
00000050: d486 2a3d 2f6a 99bb ed77 b3bc b475 193d
00000060: 112c 663b ae09 58bb 62f9 8dbb f459 25bd
00000070: 9576 f03c 1c1e 233d 25e2 01bd f373 25bc
00000080: e272 703c d580 85bc cadd 083d f69b 193d
00000090: 95c9 0cbd 08c6 04bd 36f8 063d 3bd6 ef3c
000000a0: ac14 9f3c b7dd fd3c d942 0b3d 188b c4bb
000000b0: fb4e 41bd 570c 833c 39ad 323d 2a55 2a3d
000000c0: 302f 203c 8e5c 84bb 0221 c5bc acf9 0c3c
000000d0: 96e0 edbc f8a5 a0bc 212e 06bd 87c1 a7bc
000000e0: 2030 1fbd e7eb 253d cc9e 1c3c 4525 b0bc
000000f0: 50a5 1dbb 791f b2bc b773 f2bc 9f47 08bd
00000100: f867 c13c ad99 793a b62b e8bc edf3 823c
00000110: 8c2e 993c b3c7 98bc 4027 20bd 7885 033d
00000120: 5dab 3d3c 0853 203c 906d bd3c 68b9 02bd
00000130: f793 693c 968a a2bc 8c87 4bbc 2f1e 133d
00000140: 732c aa3b 986b 063c 512e adbb c7f7 6ebc
00000150: 66e7 453d 7645 24bd 425d 9ebc cd9e dfba
00000160: d4d4 05bd 5050 edbc b1cf 6abc 073b f5bc
00000170: f7a5 61bc a10b ca3c 3692 663b c1c8 123d
00000180: 0308 003c 48ea 15bc 50cd b43c 8f59 0a3b
00000190: 7435 bb3c 3ebc 2abd d6bd 143b 887c 40bc
000001a0: 5b07 e4bc 5d3d c83c 2ee7 f5bb 478f 00bd
000001b0: 7e24 d73b 0621 283d fcaa 17bd 2ab1 1ebd
000001c0: 6839 5b3c de2f 253d 25a5 8bbb deb0 87bc
000001d0: 90c5 113d c016 5ebb ec90 87bc eabd 2a3d
000001e0: af5b 93bc 6dc9 08bc cbff 123d 642a 0dbc
000001f0: 7c27 21bd 542a 48bd 2b7b 8b3c b0a3 2b3c
00000200: 9a00 23bc 3238 e7bc 407d 44bc e37f d43c
00000210: 9765 e03b 6ea5 f8bc 09c7 f6bc e731 42bd
00000220: cc6e 193d ed10 16bc 0d52 05bd 5826 67bb
00000230: 9213 323c b02b cabb 769c 06bd 70f6 d03b
00000240: 7617 1abd 6989 f23c 0048 b938 c4bc 1abc
00000250: 964a 5fbb 8135 22bd 8150 d33c d639 07bc
00000260: e297 24bd 6904 33bb 6247 dc3c f76a 95ba
00000270: 2ffe 1abc 23b1 333d 0e48 183d 804c d13c
00000280: 2d3a 20bc 4f3d bf3c 2de0 103c dbc2 a1bc
00000290: 69a0 073d 27a1 da3c e4bb 0dbd 69c9 703c
000002a0: 8b2b ddbc 0bd0 573c 582b d7bc 2348 66bc
000002b0: e2be f7bc 3c8e 253d 5f31 3b3c 84b0 f33c
000002c0: 9ea5 86bc 5bba 153c f6dc 1f3d 44b1 a93c
000002d0: 2d75 053d d6da b3bc 87d3 cd3a 3d0d 30bd
000002e0: c062 8c3b 53ab 2abd dccd 40bd ad7a cbbc
000002f0: 60a0 f5bc a1de 2a3c 68db 1b3c 00a8 1f3c
00000300: 2ca8 ff3b 2e28 353d ecb9 873c b0fd ebbc
00000310: e4b7 eebc d2f9 1fbd a141 013d 1f2f 1b3d
00000320: a013 3bbc 3299 cebc 20b7 713b 4584 c3bc
00000330: 9031 ac3c 5944 8a3c 1f32 f1bc 9d83 3abc
00000340: 8415 33bd f71d ccbc cd85 85bc 1cca dfbc
00000350: f090 9c3b 079b 043d ac40 9abb 9dd4 7d3c
00000360: de89 72bc 24b1 1bbd 66d6 a8bc 1e21 1f3d
00000370: 2c0d 02bd c7c3 cdbc b1d8 06bd 10cc 213d
00000380: b85e f4bb 1cec 113c 5776 99bc e6c9 1f3d
00000390: b383 d93c 4581 293c 268a 13bd 94d6 a83c
000003a0: 0e7e 1e3d da49 e3bc ca90 843c a028 3abd
000003b0: 60fd 9ebc 2b2f 3bbc de78 6f3c 1f38 c8bc
000003c0: 2e0a 16bc 2649 063d 81ce eb3c 76dd 503c
000003d0: 7c61 dcbc c016 76bb ec41 84bc 22c3 c4bc
000003e0: 0ce1 223d b6ca 04bd f102 36bd 9d8a 6e3c
000003f0: 0c66 043c 3fe5 cabc 3ab7 0a3d f89a 1d3d

features.2.weight f4 [128, 256]
0.06145899 0.012033944 0.027333135 0.004863251 -0.008589918 0.05913238 0.025162933 -0.010510986
0.010867297 -0.060605932 -0.010399381 0.015396493 0.055583104 0.027635613 0.038418084 -0.010856447
0.04028064 -0.031748995 -0.031669486 0.033154253 -0.006122738 0.05422789 0.033339564 -0.033081535
0.0045636073 -0.021452334 0.008406128 0.019829549 0.02846136 0.032787763 0.051690724 -0.027210005
0.014309185 0.052540325 -0.024085231 -0.0069801975 -0.027923662 -0.04926256 -0.046048976 -0.041106373
0.023652032 -0.046895165 0.021964068 0.048506998 -0.03575657 -0.061721403 -0.055558294 0.0018606037
0.029247805 0.03628387 0.045556556 0.05098678 -0.030478818 0.015461592 -0.00900525 0.049843248
-0.052173764 0.0010339618 -0.03479114 -0.038422205 -0.0082184225 0.05138628 0.0485865 0.05359667
-0.048124835 0.039053496 -0.056891218 -0.009147721 0.021831974 -0.014224878 0.018921524 -0.0052435324
0.01065318 -0.026813868 0.0020543379 -0.018064106 -0.05667881 0.045867857 0.048143253 0.043793116
0.006788976 -0.03047653 0.021345198 0.038627118 -0.03149222 0.047065277 0.048249494 0.04398019
0.016187185 -0.057372376 0.044027664 -0.009399352 0.006794563 0.020851899 0.04013145 -0.008680775
-0.01410365 0.017125577 -0.06187196 0.022214642 0.022365108 0.038750924 -0.0034960986 0.018620789
0.016171347 -0.027577097 0.024084918 0.017587744 0.042675517 -0.01140284 -0.016239606 0.014850549
-0.0494212 -0.04179147 0.026241116 -0.043105 -0.016140774 0.002859169 -0.03283763 -0.0024151078
0.057388365 0.05615409 0.012919828 -0.025137149 -0.047939982 -0.007960203 -0.020093774 0.02491723
0.01566456 0.05678512 0.0069343373 0.035739977 -0.024031512 -0.013898127 0.020018354 0.007978703
0.03696247 -0.035741515 -0.0041348096 0.047504153 0.008102442 0.048642613 -0.030709881 -0.021169677
0.01804772 -0.0062215505 -0.05922237 -0.05360099 -0.024209108 -0.00022449617 0.05479348 -0.04899058
-0.024506979 -0.045690373 0.035480335 0.01519125 0.012728029 -0.004025371 0.0013468415 0.057699546
-0.016308913 0.018859675 0.04688713 0.058988906 0.03748307 0.031790048 -0.035525553 0.042785354
-0.060784314 0.006196349 0.052411243 -0.013739687 -0.0051333033 -0.004104525 0.009007785 -0.032194383
-0.014707046 -0.05197569 -0.034544047 -0.025831692 0.05761696 0.026854163 -0.033436574 0.034219958
-0.006593846 0.027149603 0.05215514 -0.012141772 -0.0046577635 0.0587606 -0.041830625 -0.05682177
-0.0013339599 0.04951003 -0.017499942 0.04034584 0.04075645 -0.04467994 0.031214487 -0.049815174
-0.034837604 -0.047086067 0.0018148869 -0.01962583 -0.011466213 -0.020321885 -0.03729604 -0.047064714
-0.052694026 -0.059729468 0.003916325 0.008941343 -0.01996766 -0.036239553 0.03546977 -0.0062216185
-0.038625635 -0.06166499 0.04583112 0.03606335 -0.044755183 -0.03188026 -0.039994627 -0.02673582
-0.010381414 0.020767406 -0.055171102 -0.006033249 0.016126746 0.031724125 -0.016320225 0.003776677
0.053151455 -0.020015106 -0.029759983 0.0438893 -0.020562358 0.042701833 0.04049141 0.046556048
0.056269806 0.028552808 0.032122944 0.0007990814 0.044886023 0.0381566 -0.0006195717 -0.02142062
0.020580955 -0.03449772 0.02358094 -0.019686095 -0.061461 0.026967715 -0.031639762 0.04641071
00000000: 6cbc 7b3d 052a 453c bde9 df3c e85b 9f3b
00000010: babc 0cbc cb34 723d 7f22 ce3c 4536 2cbc
00000020: bf0c 323c ed3d 78bd 2a62 2abc 9241 7c3c
00000030: 1cab 633d 1564 e23c 485c 1d3d 3ddf 31bc
00000040: 50fd 243d 3c0b 02bd ddb7 01bd c1cc 073d
00000050: 40a1 c8bb 101e 5e3d 118f 083d 8180 07bd
00000060: 508a 953b cebc afbc dbb9 093c 9471 a23c
00000070: cc27 e93c 764c 063d a7b9 533d 84e7 debc
00000080: 1271 6a3c 8634 573d 644e c5bc 24ba e4bb
00000090: 2ac0 e4bc 8ac7 49bd da9d 3cbd 285f 28bd
000000a0: e8c1 c13c 2515 40bd fded b33c 46af 463d
000000b0: 7b75 12bd 95cf 7cbd 1891 63bd 80df f33a
000000c0: 1899 ef3c 659e 143d 8399 3a3d 84d7 503d
000000d0: b7ae f9bc 9e52 7d3c c28a 13bc 6f28 4c3d
000000e0: 28b4 55bd 0086 873a 2881 0ebd 9a60 1dbd
000000f0: 90a6 06bc 6c7a 523d a302 473d 2f88 5b3d
00000100: 8c1e 45bd 8ff6 1f3d c406 69bd 53e0 15bc
00000110: f8d8 b23c 760f 69bc 5001 9b3c f0d1 abbb
00000120: ad8a 2e3c c2a8 dbbc 12a2 063b 2dfb 93bc
00000130: 0a28 68bd efdf 3b3d dc31 453d 6960 333d
00000140: 0f76 de3b eaa9 f9bc 20dc ae3c 7837 1e3d
00000150: fcfd 00bd 85c7 403d 43a1 453d 9224 343d
00000160: fd9a 843c 4cff 6abd 5a56 343d bdff 19bc
00000170: eda4 de3b 9ad1 aa3c e060 243d cf39 0ebc
00000180: ff12 67bc f04a 8c3c 746d 7dbd 7bfb b53c
00000190: 0837 b73c 4ab9 1e3d cd1e 65bb a08a 983c
000001a0: c679 843c 5de9 e1bc bc4d c53c 2c14 903c
000001b0: 86cc 2e3d fad2 3abc ec08 85bc b84f 733c
000001c0: e26d 4abd 882d 2bbd 9cf7 d63c de8e 30bd
000001d0: a839 84bc e560 3b3b c080 06bd c946 1ebb
000001e0: 1010 6b3d d501 663d b0ad 533c 6cec cdbc
000001f0: b75c 44bd 836b 02bc b39b a4bc 381f cc3c
00000200: f752 803c 8497 683d 7039 e33b 1564 123d
00000210: bcdd c4bc f8b4 63bc 88fd a33c 1bb9 023c
00000220: f565 173d b265 12bd 4c7d 87bb b793 423d
00000230: 1bc0 043c 7a3d 473d 4a93 fbbc 086c adbc
00000240: d0d8 933c 26de cbbb 2893 72bd b68c 5bbd
00000250: 2e52 c6bc bb66 6bb9 216f 603d 59aa 48bd
00000260: dcc2 c8bc d425 3bbd d453 113d b8e4 783c
00000270: 3989 503c 42e7 83bb 8088 b03a 5c56 6c3d
00000280: 459a 85bc 9b7f 9a3c b80c 403d 5a9e 713d
00000290: d987 193d 4836 023d 3e83 11bd b23f 2f3d
000002a0: f9f8 78bd be0a cb3b 2cad 563d 6d1c 61bc
000002b0: 4535 a8bb 407f 86bb 6395 133c 42de 03bd
000002c0: d2f5 70bc 76e4 54bd 0f7e 0dbd fc9c d3bc
000002d0: c3ff 6b3d 43fd db3c caf4 08bd 3a2a 0c3d
000002e0: 3011 d8bb d868 de3c a1a0 553d 48ee 46bc
000002f0: 27a0 98bb f4ae 703d 9756 2bbd f2bd 68bd
00000300: 44d8 aeba 07cb 4a3d 0a5c 8fbc ae41 253d
00000310: 3cf0 263d 5002 37bd 86b5 ff3c ff0a 4cbd
00000320: e0b1 0ebd 52dd 40bd 80e1 ed3a 59c6 a0bc
00000330: c8dc 3bbc 157a a6bc bcc3 18bd eec6 40bd
00000340: b1d5 57bd e3a6 74bd 8454 803b b67e 123c
00000350: 3893 a3bc ed6f 14bd c048 113d b8de cbbb
00000360: ea35 1ebd 6e94 7cbd 6ab9 3b3d 2ab7 133d
00000370: 3651 37bd e094 02bd 68d1 23bd 1405 dbbc
00000380: ce16 2abc 6820 aa3c 18fb 61bd 90b2 c5bb
00000390: 3d1c 843c 28f1 013d feb1 85bc 2082 773b
000003a0: 57b5 593d b8f6 a3bc 35cb f3bc 44c5 333d
000003b0: 6472 a8bc 1ee8 2e3d 52da 253d 8eb1 3e3d
000003c0: 2b7b 663d 94e7 e93c 5993 033d 7279 513a
000003d0: 68da 373d 184a 1c3d c16a 22ba 4c7a afbc
000003e0: 6499 a83c 7b4d 0dbd d12c c13c bc44 a1bc
000003f0: 88be 7bbd 66eb dc3c b298 01bd 2819 3e3d

features.2.bias f4 [128]
-0.04196444 0.04389448 -0.0503605 -0.054346647 -0.06263894 -0.040800262 -0.0111462725 0.019110767
0.03416103 -0.030976957 0.036202554 -0.050236452 -0.047935456 0.06478709 0.027645933 -0.04620167
0.014683327 0.001952506 -0.058793694 -0.024553826 0.020310495 -0.009364067 -0.049625378 0.05782257
0.031914342 0.019855684 0.051199283 -0.051771056 0.05141037 -0.015339185 0.03118981 -0.059761383
-0.057839893 -0.023721285 -0.01847529 -0.040499963 0.04994584 0.057898182 -0.051550142 -0.033760484
0.014223907 -0.050252903 0.008458062 -0.03981712 -0.060769748 0.017273076 -0.018131152 0.029500343
-0.054740224 -0.025835166 -0.026257718 -0.013862308 -0.06458535 -0.020428868 -0.024468614 0.029916044
-0.021023119 -0.019666417 0.007979229 0.00039878144 -0.029408759 0.006347833 -0.0027809916 -0.032440107
-0.061857216 -0.05502001 -0.020421548 0.009365677 0.024951687 -0.014018478 -0.0040056244 -0.010056318
-0.005431901 -0.03285227 0.04047776 0.018234523 0.06068894 -0.030823035 -0.051549815 0.051550798
-0.060052425 0.06627848 -0.06391841 0.052240547 -0.005356456 0.028335724 0.05024226 0.0611804
-0.042030733 -0.042151064 -0.02399963 -0.058261193 -0.03343566 0.014880863 0.015942352 -0.06639963
-0.03354243 -0.0017901607 0.050949987 -0.05819754 0.018877259 0.052519616 -0.020924756 -0.048267886
0.0420965 0.022876441 -0.02547203 0.033471614 -0.042001504 -0.031637385 0.016886257 0.031872235
-0.045001555 0.008766719 -0.05291306 -0.036970872 0.0034878408 -0.017344661 0.015617116 0.047155015
-0.035743646 0.056817353 0.02159729 0.058282733 0.050110813 0.058277205 0.024534272 0.025296697
00000000: e8e2 2bbd b3ca 333d d046 4ebd 979a 5ebd
00000010: d848 80bd 2d1e 27bd db9e 36bc 2f8e 9c3c
00000020: 70ec 0b3d 63c3 fdbc 2149 143d bdc4 4dbd
00000030: f857 44bd 18af 843d b979 e23c f63d 3dbd
00000040: 5692 703c 3beb ff3a a8d1 70bd 1b25 c9bc
00000050: 3262 a63c be6b 19bc fb43 4bbd 5cd7 6c3d
00000060: 9db8 023d 63a8 a23c 57b6 513d e30d 54bd
00000070: ae93 523d 3451 7bbc c681 ff3c 5ac8 74bd
00000080: 86e9 6cbd 2453 c2bc 7e59 97bc 4ae3 25bd
00000090: 0294 4c3d a526 6d3d 3e26 53bd 6f48 0abd
000000a0: 640b 693c fdd5 4dbd af93 0a3c 4717 23bd
000000b0: b3e9 78bd 4480 8d3c c887 94bc b4aa f13c
000000c0: 4937 60bd 45a4 d3bc 6d1a d7bc bc1e 63bc
000000d0: 5345 84bd 715a a7bc 6772 c8bc 7e12 f53c
000000e0: ad38 acbc 771b a1bc 50bb 023c 8a13 d139
000000f0: a3ea f0bc 7c01 d03b 4c41 36bb ebdf 04bd
00000100: fe5d 7dbd a95c 61bd 174b a7bc 7f72 193c
00000110: 7b67 cc3c c2ad 65bc 9d41 83bb 41c3 24bc
00000120: 17fe b1bb 1a90 06bd 02cc 253d 9160 953c
00000130: f794 783d 9780 fcbc e625 53bd ee26 533d
00000140: 88f9 75bd 03bd 873d a8e7 82bd 2ffa 553d
00000150: 3685 afbb 5220 e83c d4ca 4d3d 4d98 7a3d
00000160: 6b28 2cbd 98a6 2cbd df9a c4bc 4aa3 6ebd
00000170: d5f3 08bd ddce 733c 8999 823c 87fc 87bd
00000180: c963 09bd d3a3 eaba efb0 503d 8b60 6ebd
00000190: 7ba4 9a3c cf1e 573d 656a abbc 8cb4 45bd
000001a0: 616d 2c3d 6067 bb3c b8aa d0bc 8819 093d
000001b0: c509 2cbd 3496 01bd 0c55 8a3c 768c 023d
000001c0: 8d53 38bd 49a2 0f3c 5dbb 58bd c56e 17bd
000001d0: 4294 643b 6416 8ebc efde 7f3c 9e25 413d
000001e0: ee67 12bd 50b9 683d cdec b03c e0b9 6e3d
000001f0: ff40 4d3d 14b4 6e3d 19fc c83c 053b cf3c

mean.0.weight f4 [64, 128]
-0.0015441973 -0.066395506 -0.07077863 -0.043448664 0.06879654 0.042802304 -0.082075745 -0.015630422
0.04015118 -0.019648604 -0.06263311 0.039849136 -0.05286262 -0.05635143 0.011537563 -0.01851062
-0.030299129 0.08206851 0.051203072 -0.05074088 0.068721324 -0.07219629 0.066391625 -0.07785139
-0.044871718 -0.008676046 -0.020245215 0.040968902 -0.014451616 0.062249977 0.08369688 -0.031164708
0.06444376 -0.002490133 0.0059426045 0.035573352 0.02318655 -0.043990355 -0.028238326 0.075988464
0.030510245 -0.057383645 0.001954446 0.08404791 0.05350653 -0.040886827 0.0576865 -0.0020975322
-0.040567543 -0.056210194 0.016032279 0.018390877 0.04695563 -0.089446105 -0.06954522 0.0063812034
-0.06627875 0.052519124 -0.07634504 0.033887718 0.03665583 0.010300179 0.08232976 -0.043902833
0.010716752 0.061315004 0.068609424 -0.027883716 0.019130101 0.0102004325 -0.013035094 0.05799929
-0.062045578 -0.037809093 -0.011582725 -0.003797076 -0.011998244 -0.025356198 0.013395925 -0.08370562
-0.08360946 -0.00703704 0.02996897 -0.06550483 0.0714506 -0.011394584 0.0067065232 0.06616992
-0.073037535 -0.03933222 0.052253604 0.015147005 0.0063416758 -0.05085769 0.01854902 0.081624
-0.014319605 0.015440939 -0.029035605 0.0019215721 0.007100833 -0.017580323 -0.072275124 -0.0012349627
-0.014800315 0.0036128908 -0.038308155 -0.047114853 -0.08313634 0.0180429 0.06403157 -0.020192131
0.039845612 -0.04178758 0.068466954 0.01326483 0.00797366 -0.035001397 -0.0668816 -0.060923696
-0.08515462 0.02622435 0.04458104 0.052048307 0.068003125 -0.034603607 0.07926013 -0.00048550428
0.032649837 0.05836507 0.027432434 0.015389882 -0.06218659 -0.08760119 0.06634944 -0.08172172
0.08642074 -0.057623677 -0.0008786693 -0.08556579 -0.050522354 -0.00034083426 -0.06345406 -0.056635723
0.055330925 0.027032211 0.0422746 -0.006187156 0.05314959 -0.019214094 -0.013865806 0.049906276
-0.0024253726 0.08612781 0.08373598 -0.055127464 0.00973694 -0.017986432 -0.00020310283 0.05631607
-0.078356616 -0.08134702 0.07736794 0.0802976 0.08031776 0.017380878 0.011390701 -0.009755932
0.05513387 -0.040736604 -0.06862182 -0.045787208 -0.069241315 -0.07452847 -0.042128883 -0.039457247
0.06848372 -0.04787432 0.08331183 -0.010748796 -0.045980766 -0.040661823 0.062135182 0.023561299
-0.002681613 0.029317908 0.010113746 0.07986606 -0.015885063 0.00870318 -0.059105907 0.079293005
0.0029683486 0.085857384 -0.0119038 0.017896324 0.013077132 -0.05733549 0.018573873 0.049675636
-0.030140359 0.027991176 0.033063494 -0.076344624 0.05571883 0.004252471 0.023862094 0.07798385
0.08300232 0.08219709 -0.06516471 -0.036960058 0.028086618 -0.024841681 -0.06419688 -0.005303614
0.014218673 0.0062590092 0.03186667 -0.015097879 -0.050454717 0.03438674 0.061047204 -0.02899291
0.04568953 -0.0070699155 -0.03174548 -0.060952 -0.045982696 0.064263634 0.041692995 0.045454673
-0.075833045 0.05442161 0.024867907 -0.08098987 -0.0807406 0.0398084 -0.06286567 0.012819238
0.05769492 0.064640366 0.06769895 -0.067459 -0.064619556 0.04235468 0.020177431 -0.064211935
-0.050844997 -0.07737355 -0.07251151 -0.085944116 -0.02451624 0.0720009 0.07096886 -0.059690874
00000000: aa66 caba 5efa 87bd 63f4 90bd 3af7 31bd
00000010: 33e5 8c3d 7851 2f3d 5417 a8bd 5f0b 80bc
00000020: 9075 243d 1cf6 a0bc ca45 80bd d938 233d
00000030: 7a86 58bd c2d0 66bd 0c08 3d3c 95a3 97bc
00000040: e135 f8bc 8913 a83d 50ba 513d abd5 4fbd
00000050: c4bd 8c3d a6db 93bd 55f8 873d 8d70 9fbd
00000060: 68cb 37bd f925 0ebc 4bd9 a5bc 02cf 273d
00000070: 79c6 6cbc d5f9 7e3d 4569 ab3d 214d ffbc
00000080: 17fb 833d 8031 23bb 2eba c23b 5db5 113d
00000090: b8f1 bd3c 3b2f 34bd 1054 e7bc d79f 9b3d
000000a0: 9ff0 f93c 1d0b 6bbd 2a16 003b 5021 ac3d
000000b0: aa29 5b3d f278 27bd ae48 6c3d c076 09bb
000000c0: 272a 26bd a93c 66bd 2056 833c 77a8 963c
000000d0: 8c54 403d 852f b7bd b96d 8ebd 6a19 d13b
000000e0: 27bd 87bd 4b1e 573d ca5a 9cbd d9cd 0a3d
000000f0: 6c24 163d 15c2 283c 819c a83d 75d3 33bd
00000100: 5195 2f3c 7125 7b3d 1983 8c3d 646c e4bc
00000110: bbb6 9c3c b71f 273c 2691 55bc aa90 6d3d
00000120: 8123 7ebd b5dd 1abd 78c5 3dbc 5dd8 78bb
00000130: 4894 44bc cdb7 cfbc 957a 5b3c da6d abbd
00000140: 703b abbd f896 e6bb 7c81 f53c 6527 86bd
00000150: b154 923d 59b0 3abc 65c2 db3b 1884 873d
00000160: b494 95bd d21a 21bd e007 563d 252b 783c
00000170: d5cd cf3b 2750 50bd 1df4 973c 7c2a a73d
00000180: c79c 6abc fefb 7c3c 14dc edbc 43dd fb3a
00000190: 1bae e83b 9c04 90bc fb04 94bd 79de a1ba
000001a0: 057d 72bc 40c6 6c3b 03e9 1cbd 81fb 40bd
000001b0: 6343 aabd b4ce 933c fc22 833d f869 a5bc
000001c0: 2735 233d 7429 2bbd 6738 8c3d bb54 593c
000001d0: f4a3 023c a05d 0fbd 38f9 88bd 208b 79bd
000001e0: 8c65 aebd 73d4 d63c 9c9a 363d 9b30 553d
000001f0: 3945 8b3d 83bc 0dbd 2353 a23d 488b feb9
00000200: d6bb 053d 3610 6f3d fcb9 e03c d825 7c3c
00000210: 5eb7 7ebd 4168 b3bd 37e2 873d b85d a7bd
00000220: 5bfd b03d ce06 6cbd 8056 66ba 1e3d afbd
00000230: 87f0 4ebd 00b2 b2b9 34f4 81bd dcfa 67bd
00000240: aea2 623d a872 dd3c 2228 2d3d a0bd cabb
00000250: 62b3 593d e066 9dbc 682d 63bc 866a 4c3d
00000260: 00f3 1ebb c763 b03d c57d ab3d 56cd 61bd
00000270: b087 1f3c 4858 93bc 00f8 54b9 aeab 663d
00000280: 6f79 a0bd 4499 a6bd 1573 9e3d 1173 a43d
00000290: a37d a43d 5862 8e3c 10a0 3a3c 58d7 1fbc
000002a0: 0ed4 613d 6ddb 26bd 9989 8cbd 5e8b 3bbd
000002b0: 64ce 8dbd 62a2 98bd 568f 2cbd ec9d 21bd
000002c0: 3141 8c3d dd17 44bd 659f aa3d b81b 30bc
000002d0: 5456 3cbd 038d 26bd 7681 7e3d a003 c13c
000002e0: 00be 2fbb 1c2c f03c 20b4 253c d190 a33d
000002f0: 6421 82bc c897 0e3c 0919 72bd 5f64 a23d
00000300: a088 423b ffd5 af3d 2808 43bc 509b 923c
00000310: 7841 563c 9ed8 6abd 3c28 983c ae78 4b3d
00000320: eae8 f6bc c04d e53c 966d 073d 925a 9cbd
00000330: 6e39 643d 5058 8b3b 707a c33c ffb5 9f3d
00000340: 1ffd a93d f356 a83d 1375 85bd 6e63 17bd
00000350: e815 e63c c880 cbbc a779 83bd f0c9 adbb
00000360: 70f5 683c 6018 cd3b a086 023d 185d 77bc
00000370: 9ba9 4ebd 1cd9 0c3d a20c 7a3d 8a82 edbc
00000380: f224 3b3d c0aa e7bb 8c07 02bd cea8 79bd
00000390: 5a58 3cbd a79c 833d 46c6 2a3d ae2e 3a3d
000003a0: 5b4e 9bbd 32e9 5e3d c8b7 cb3c 04de a5bd
000003b0: 545b a5bd 220e 233d b7bf 80bd c807 523c
000003c0: 8251 6c3d 2b62 843d bfa5 8a3d f227 8abd
000003d0: 4257 84bd 1a7c 2d3d 244b a53c 8c81 83bd
000003e0: d842 50bd 0676 9ebd ea80 94bd 7803 b0bd
000003f0: 48d6 c8bc 3575 933d 1f58 913d 6b7e 74bd

mean.0.bias f4 [64]
-0.04345278 0.014311962 -0.031917356 0.075310156 0.037313666 0.034372754 -0.089498825 0.03489029
-0.0222346 -0.065977834 -0.0074893306 0.055474814 0.048978016 -0.015947321 -0.007876832 -0.082480416
-0.079731666 -0.0767137 0.049861036 0.005436742 -0.06995266 0.03461479 0.031029185 -0.04740067
-0.05749929 0.021527164 0.0701353 0.07766062 0.047604878 0.006690085 -0.080445305 -0.08010936
0.025864113 -0.015169986 -0.016586894 0.023508161 -0.05567562 0.080807045 0.06222188 -0.04445121
-0.0006751127 -0.025959857 0.03479426 0.06905823 -0.03929678 0.09091916 0.052321866 -0.036309037
0.033190057 0.030790422 -0.033422563 -0.0058612972 -0.059401553 -0.0024261805 0.07161821 -0.036128305
0.0012763366 -0.020202288 -0.0074973204 0.00764189 -0.07096299 0.050275434 -0.048740994 -0.041441564
00000000: 8bfb 31bd b87c 6a3c c6bb 02bd 363c 9a3d
00000010: 37d6 183d 72ca 0c3d 294b b7bd 1fe9 0e3d
00000020: 5625 b6bc 631f 87bd 0f69 f5bb 8f39 633d
00000030: 2c9d 483d f5a3 82bc d40d 01bc 7eeb a8bd
00000040: 5b4a a3bd 131c 9dbd 163b 4c3d b326 b23b
00000050: 5743 8fbd 3dc8 0d3d eb30 fe3c 3427 42bd
00000060: 6084 6bbd bc59 b03c 19a3 8f3d 880c 9f3d
00000070: 55fd 423d 8038 db3b 82c0 a4bd 6010 a4bd
00000080: fae0 d33c 888b 78bc 3de1 87bc 3094 c03c
00000090: 1e0c 64bd 2a7e a53d 5fdc 7e3d 7912 36bd
000000a0: 0cfa 30ba c4a9 d4bc 6d84 0e3d 676e 8d3d
000000b0: a9f5 20bd d333 ba3d 744f 563d c9b8 14bd
000000c0: 4cf2 073d 323c fc3c 19e6 08bd 2010 c0bb
000000d0: 0b4f 73bd 8e00 1fbb 91ac 923d 46fb 13bd
000000e0: c04a a73a 457f a5bc 15ac f5bb d268 fa3b
000000f0: 0b55 91bd 9ded 4d3d a3a4 47bd a1be 29bd

mean.2.weight f4 [8, 64]
-0.08143488 0.11545117 -0.07245308 0.014125984 0.06761563 -0.115640715 -0.11911571 0.0030963891
-0.019373488 0.039011933 -0.015211098 0.020980215 -0.01596839 -0.007552888 0.036309995 -0.018041315
-0.005908072 0.017690867 -0.028446158 0.01969918 0.018180797 0.10796061 -0.10142006 -0.09094143
-0.073719375 -0.021676004 0.0015176358 -0.0885273 0.035730235 -0.0025238246 0.01808907 0.06381311
0.047231533 0.0409614 -0.10741438 0.09329364 -0.055465225 -0.048571087 -0.024065401 0.060444433
-0.03323777 0.02939102 -0.028610783 0.050941642 -0.09353863 0.037424427 0.06438937 0.098226026
-0.05352645 0.09263412 -0.06845178 -0.025806248 0.06369106 0.01900925 -0.09100709 -0.023994492
0.111089915 -0.0748888 -0.10835164 -0.11371386 0.0004639902 0.07824493 -0.038141966 -0.11859187
-0.01273018 0.010885283 -0.021875428 0.08995089 0.023404947 0.03221032 0.11170135 0.10993785
0.014927146 0.04403091 -0.10559446 0.060496844 -0.08817958 -0.042698503 -0.0015228504 -0.037047293
0.005205959 0.053744428 0.06865166 0.102346905 0.11881626 0.12651275 -0.07622691 0.08194119
-0.07765731 -0.07428484 0.00057008007 -0.0957292 0.09693156 -0.06391147 0.01569218 -0.0530169
0.014895504 -0.07592684 0.10057889 -0.008717425 0.06928966 0.013880746 -0.12583362 -0.08581645
0.10154872 -0.013091848 0.08432665 0.027723355 -0.11697076 -0.059845444 0.10696882 0.011778095
-0.022161212 0.111452505 -0.08470598 -0.10713543 -0.044187315 0.062093984 -0.06639817 0.09913411
-0.09888245 -0.014951881 0.094631694 -0.082574 -0.11274556 -0.11110709 0.088824764 -0.12466047
0.0346534 -0.12120685 -0.08740535 -0.052143842 -0.0585153 -0.005072266 -0.018532148 -0.055758335
-0.07678543 -0.10919415 0.08875295 -0.018812206 -0.04725263 -0.103207015 0.09448096 -0.068792045
0.08020793 -0.08310198 0.042011462 -0.12647942 0.085212015 0.0030512386 -0.022888986 0.11616637
0.059675526 0.0460753 -0.036966354 0.09380627 -0.06413692 -0.10555661 0.0016979735 -0.06114439
-0.05653131 -0.019194573 -0.013542896 -0.0758148 -0.0072656674 -0.07093585 0.009951656 -0.0064159837
-0.120154455 -0.020395853 -0.061105732 0.011751652 0.09107386 -0.09870684 -0.05215567 0.013274254
-0.016048444 -0.04884456 -0.011947459 -0.09386653 -0.10388263 0.08819686 0.10861434 0.09513346
-0.027721643 -0.04479035 -0.010389898 -0.02130093 0.07978217 -0.045227673 -0.10971263 -0.06654663
-0.06687237 -0.042148247 -0.09470684 -0.110016085 0.05669289 -0.05999291 -0.034890015 -0.046523623
-0.054848034 -0.10978085 -0.0933776 0.07172078 0.014420489 0.057318274 -0.040088184 0.061900426
0.088043466 -0.07465683 0.0054598087 -0.064868376 -0.15638044 -0.09362777 -0.015991379 0.10524591
0.098352656 0.07751435 -0.09985441 0.043268476 -0.020934395 -0.009981424 -0.07352778 0.06383342
0.082749896 0.07186054 0.12138376 -0.03355598 -0.07791418 -0.06615108 -0.0031247172 0.029795356
0.09795173 -0.037309814 -0.096213445 -0.112931095 0.094189316 -0.04156269 -0.11854088 0.03934279
-0.06382053 -0.096606635 0.021602754 0.11944941 0.030262835 0.0012863303 -0.04812184 -0.094593585
-0.006239593 -0.033528488 -0.008860468 -0.045159124 -0.09424332 -0.121688485 -0.06718831 -0.09377691
00000000: 55c7 a6bd aa71 ec3d 4862 94bd ac70 673c
00000010: 107a 8a3d 0ad5 ecbd f0f2 f3bd caec 4a3b
00000020: 26b5 9ebc faca 1f3d f837 79bc b3de ab3c
00000030: 24d0 82bc 377e f7bb cab9 143d 61cb 93bc
00000040: 8098 c1bb 70ec 903c eb07 e9bc 2d60 a13c
00000050: e5ef 943c 741a dd3d 52b5 cfbd 803f babd
00000060: 2ffa 96bd e091 b1bc 68eb c63a cd4d b5bd
00000070: de59 123d c066 25bb 882f 943c 73b0 823d
00000080: da75 413d 24c7 273d 12fc dbbd bc10 bf3d
00000090: 812f 63bd 7af2 46bd ce24 c5bc 9594 773d
000000a0: 5424 08bd 70c5 f03c 2961 eabc 2fa8 503d
000000b0: 2e91 bfbd 5b4a 193d 93de 833d ba2a c93d
000000c0: 8d3e 5bbd f5b6 bd3d 7230 8cbd a067 d3bc
000000d0: 7570 823d 49b9 9b3c ed61 babd 1990 c4bc
000000e0: 1c83 e33d 4d5f 99bd 77e7 ddbd d0e2 e8bd
000000f0: b643 f339 e13e a03d c03a 1cbd 4be0 f2bd
00000100: 3f92 50bc 3058 323c 1934 b3bc 2c38 b83d
00000110: bbbb bf3c f8ee 033d adc3 e43d 1827 e13d
00000120: fd90 743c c159 343d e941 d8bd 8acb 773d
00000130: 7f97 b4bd a0e4 2ebd 619a c7ba e7be 17bd
00000140: c096 aa3b 1e23 5c3d 3e99 8c3d 419b d13d
00000150: f055 f33d 8f8c 013e db1c 9cbd c8d0 a73d
00000160: cc0a 9fbd a622 98bd 6d71 153a ac0d c4bd
00000170: 0e84 c63d 04e4 82bd e38c 803c 4028 59bd
00000180: 460c 743c 887f 9bbd 4efc cd3d 88d3 0ebc
00000190: bde7 8d3d 126c 633c 87da 00be 89c0 afbd
000001a0: c6f8 cf3d 317f 56bc 73b3 ac3d 171c e33c
000001b0: 5e8e efbd 7f20 75bd 7812 db3d e9f8 403c
000001c0: 6e8b b5bc 3641 e43d 547a adbd d269 dbbd
000001d0: c2fd 34bd 4356 7e3d c4fb 87bd d306 cb3d
000001e0: e282 cabd bcf8 74bc 43ce c13d 8f1c a9bd
000001f0: 25e7 e6bd 1d8c e3bd c2e9 b53d fd4d ffbd
00000200: b9f0 0d3d 4c3b f8bd 9301 b3bd c894 55bd
00000210: bdad 6fbd 4035 a6bb bbd0 97bc da62 64bd
00000220: ae41 9dbd 2fa1 dfbd 1bc4 b53d 0e1c 9abc
00000230: f98b 41bd 335e d3bd 3c7f c13d d8e2 8cbd
00000240: 0e44 a43d 5f31 aabd 3614 2c3d d283 01be
00000250: a383 ae3d 4af7 473b af81 bbbc a2e8 ed3d
00000260: 536e 743d 74b9 3c3d 086a 17bd 801d c03d
00000270: 385a 83bd 102e d8bd 898e de3a 8a72 7abd
00000280: 608d 67bd f03d 9dbc 06e3 5dbc ca44 9bbd
00000290: d614 eebb d146 91bd 450c 233c 2c3d d2bb
000002a0: 8a13 f6bd 3415 a7bc 014a 7abd 008a 403c
000002b0: ef84 ba3d d026 cabd 2fa1 55bd 427c 593c
000002c0: 0778 83bc 3c11 48bd 46bf 43bc 183d c0bd
000002d0: 6bc0 d4bd 8ea0 b43d 3271 de3d 55d5 c23d
000002e0: 8018 e3bc 1676 37bd 643a 2abc 4a7f aebc
000002f0: d664 a33d a740 39bd 04b1 e0bd 9949 88bd
00000300: 62f4 88bd a4a3 2cbd a9f5 c1bd 1d50 e1bd
00000310: ce36 683d 20bb 75bd d5e8 0ebd 8e8f 3ebd
00000320: 55a8 60bd c8d4 e0bd c13c bfbd 58e2 923d
00000330: ea43 6c3c 91c6 6a3d 8233 24bd 4d8b 7d3d
00000340: 2250 b43d aee5 98bd 32e8 b23b b6d9 84bd
00000350: 3222 20be ebbf bfbd 5a00 83bc 2b8b d73d
00000360: 1e6d c93d d8bf 9e3d 7880 ccbd 493a 313d
00000370: 9c7e abbc 2089 23bc bc95 96bd 19bb 823d
00000380: c778 a93d 9e2b 933d 0c98 f83d ff71 09bd
00000390: 7891 9fbd 387a 87bd 0ec8 4cbb 6415 f43c
000003a0: eb9a c83d 2dd2 18bd 8e0b c5bd 6b48 e7bd
000003b0: 54e6 c03d a43d 2abd 90c5 f2bd e825 213d
000003c0: 57b4 82bd b3d9 c5bd 42f8 b03c e4a1 f43d
000003d0: c4e9 f73c 159a a83a 681b 45bd 48ba c1bd
000003e0: 8075 ccbb 2b55 09bd 7f2b 11bc c6f8 38bd
000003f0: a402 c1bd d037 f9bd 069a 89bd 1c0e c0bd

mean.2.bias f4 [8]
0.06900096 -0.07117355 -0.03548417 -0.09350186 -0.01781208 0.05981108 -0.06727374 0.10142082
00000000: 6050 8d3d 70c3 91bd d957 11bd e77d bfbd
00000010: a4ea 91bc 77fc 743d d1c6 89bd b8b5 cf3d

value.0.weight f4 [64, 128]
-0.002506569 0.028586961 0.0050639957 -0.0035820007 -0.06540884 -0.0656116 -0.06794675 -0.08230588
-0.028123718 -0.0724296 -0.040685765 0.028260835 -0.007309139 0.08184271 -0.07714434 -0.06675348
0.048297174 -0.072014034 0.072044365 -0.08052972 -0.02304133 0.08793434 -0.042000555 -0.0058823377
-0.047058925 -0.036542203 0.0353212 -0.05813732 -0.015684284 0.03974653 0.064607434 0.023335896
0.06788709 0.026432224 0.014616139 -0.06862747 -0.029394116 -0.07403905 0.06078241 -0.029771417
-0.00808192 0.077174984 -0.039584026 0.029790215 -0.009717844 -0.08679 0.08725155 -0.057525113
-0.081590995 -0.017260365 -0.0151626095 0.052685954 -0.0452582 -0.06105108 0.08185176 0.05051022
-0.024058484 -0.017179593 0.08714076 -0.085481234 -0.050462063 -0.01878409 -0.06794666 -0.051144082
-0.0064961016 0.085282825 0.061154626 -0.0109746605 -0.08514298 -0.07982357 0.07749421 -0.005326733
-0.052649822 0.068792485 -0.08392117 -0.08200077 -0.036164135 0.044557355 -0.07093501 0.051063634
-0.06398746 -0.0768843 -0.02922631 -0.030580595 -0.050142493 0.030998066 -0.077607214 -0.07357368
0.08091838 -0.07220279 -0.05480614 -0.072679214 -0.014791645 0.0076146573 0.0408609 -0.017391495
0.011136897 -0.04115197 -0.0005542487 0.0421452 -0.073055595 -0.08259365 0.041283123 -0.0010263622
-0.028461576 -0.017899938 0.011243112 0.06673109 -0.0015916154 0.041206874 0.004765168 0.054476507
0.08635185 0.06588454 0.024147034 0.031519413 0.031416535 0.075409405 0.006659873 0.04181733
-0.025157161 -0.045170303 0.058732517 -0.040454704 -0.033368986 0.06925935 -0.07344065 -0.025308393
-0.086113885 -0.046549562 0.051847003 -0.03977407 -0.074385785 0.066616766 -0.0065796725 0.06876902
-0.022689573 0.04215213 -0.027863719 -0.053527262 -0.014104225 -0.088259004 -0.051080782 0.081763595
-0.017053813 0.042170834 -0.06409986 -0.044569198 -0.06804871 0.023870867 -0.09947758 -0.036541432
-0.048482798 -0.071745746 -0.009377078 0.013016552 -0.07405229 -0.117048435 -0.057939965 0.030522773
-0.057551984 -0.0062043145 0.018327035 -0.0755167 -0.03741427 0.035238527 0.033919297 0.06794448
-0.08085174 0.006887171 -0.016026525 -0.03897294 -0.0019236541 0.079157256 -0.00139115 -0.045480505
-0.1017678 -0.051169682 0.053747363 -0.031905483 0.050970346 -0.0036935108 -0.012527263 -0.085418515
-0.040397994 -0.04647472 -0.07329817 -0.078303196 -0.0162364 -0.02111467 -0.0706597 -0.048164826
-0.016022185 -0.070703596 -0.0562658 -0.064761735 -0.04587575 -0.05154374 -0.067864075 0.081587054
-0.05193756 -0.012446315 -0.015256263 -0.0662261 -0.061439157 0.023342667 0.026361577 0.0749356
-0.078469 -0.050816465 0.051152345 0.06023781 0.094810136 0.0032874346 0.014591121 0.041474354
0.0722375 -0.020784995 0.074828595 0.033723146 -0.030060522 -0.016143661 0.059287302 0.08223014
-0.05000857 0.023358008 -0.03105524 0.036942676 -0.07697419 -0.0057295933 0.07416392 0.066156395
0.09708609 0.050508313 0.019757707 -0.039689336 -0.08356172 0.0796353 -0.04579716 -0.059365857
-0.059889678 -0.028496284 0.098972574 0.066923544 0.023447558 0.01613959 -0.050861232 -0.04882335
0.08089882 -0.10825938 -0.0069803344 0.05639444 0.0075754076 0.03789202 0.06441287 0.05882303
00000000: 4045 24bb 342f ea3c e0ef a53b 00c0 6abb
00000010: 12f5 85bd 605f 86bd aa27 8bbd fc8f a8bd
00000020: b663 e6bc f855 94bd 1ea6 26bd 4483 e73c
00000030: 8081 efbb 279d a73d dafd 9dbd 0cb6 88bd
00000040: 42d3 453d 187c 93bd ff8b 933d c4ec a4bd
00000050: 2cc1 bcbc eb16 b43d c608 2cbd a0c0 c0bb
00000060: dcc0 40bd 47ad 15bd f6ac 103d 6621 6ebd
00000070: 547c 80bc 42cd 223d e750 843d ec2a bf3c
00000080: 6308 8b3d 6488 d83c 8878 6f3c 8f8c 8cbd
00000090: eecb f0bc c9a1 97bd faf6 783d 30e3 f3bc
000000a0: 086a 04bc eb0d 9e3d dc22 22bd 9c0a f43c
000000b0: 9837 1fbc f5be b1bd f1b0 b23d 749f 6bbd
000000c0: 2e19 a7bd 9c65 8dbc 986c 78bc 3acd 573d
000000d0: aa60 39bd b210 7abd e5a1 a73d cee3 4e3d
000000e0: 4c16 c5bc 38bc 8cbc db76 b23d c910 afbd
000000f0: 4fb1 4ebd 18e1 99bc 9e27 8bbd 757c 51bd
00000100: 40dd d4bb c3a8 ae3d 467d 7a3d 10cf 33bc
00000110: 715f aebd 8a7a a3bd 49b5 9e3d e08b aebb
00000120: 57a7 57bd 13e3 8c3d ddde abbd 05f0 a7bd
00000130: d820 14bd c681 363d 6046 91bd 1a28 513d
00000140: dc0b 83bd 8475 9dbd 046c efbc 2884 fabc
00000150: 3762 4dbd a8ef fd3c 88f0 9ebd ccad 96bd
00000160: 89b8 a53d 0edf 93bd 677c 60bd d7d8 94bd
00000170: a858 72bc 6084 f93b c25d 273d 9c78 8ebc
00000180: 8877 363c f88e 28bd 004b 11ba 72a0 2c3d
00000190: 2c9e 95bd dc26 a9bd 7e18 293d 0087 86ba
000001a0: 4028 e9bc e4a2 92bc 0835 383c 4faa 883d
000001b0: c09d d0ba 8ac8 283d 2025 9c3b c222 5f3d
000001c0: 3dd9 b03d 79ee 863d 00d0 c53c 801a 013d
000001d0: a0ae 003d 3f70 9a3d 103b da3b a648 2b3d
000001e0: 6416 cebc 7f04 39bd 8291 703d d5b3 25bd
000001f0: ebad 08bd d9d7 8d3d 0d68 96bd 8c53 cfbc
00000200: 7a5c b0bd c1aa 3ebd 865d 543d 23ea 22bd
00000210: 9357 98bd 5f6e 883d 4b9a d7bb c6d6 8c3d
00000220: 7cdf b9bc b6a7 2c3d 7442 e4bc 673f 5bbd
00000230: 6815 67bc 23c1 b4bd 153a 51bd ac73 a73d
00000240: 70b4 8bbc 53bb 2c3d ca46 83bd 318e 36bd
00000250: 1f5d 8bbd d68c c33c e7ba cbbd 78ac 15bd
00000260: e695 46bd 6fef 92bd 51a2 19bc 6043 553c
00000270: baa8 97bd 17b7 efbd 7552 6dbd e50a fa3c
00000280: a1bb 6bbd 904d cbbb 9422 963c 80a8 9abd
00000290: b53f 19bd 4656 103d f6ee 0a3d 7a26 8b3d
000002a0: 9995 a5bd c7ad e13b 0f4a 83bc 17a2 1fbd
000002b0: 1f23 fcba 331d a23d 4057 b6ba c449 3abd
000002c0: a36b d0bd 4d97 51bd 3226 5c3d 53af 02bd
000002d0: 48c6 503d d40e 72bb 263f 4dbc e7ef aebd
000002e0: 5e78 25bd 475c 3ebd 5a1d 96bd 6d5d a0bd
000002f0: 3302 85bc acf8 acbc 08b6 90bd 7b48 45bd
00000300: f540 83bc 0ccd 90bd f876 66bd cda1 84bd
00000310: 36e8 3bbd 871f 53bd 52fc 8abd 1d17 a73d
00000320: 7bbc 54bd a1eb 4bbc 68f5 79bc 8da1 87bd
00000330: a0a7 7bbd 1f39 bf3c 3cf4 d73c d677 993d
00000340: 5bb4 a0bd ed24 50bd 1f85 513d ecbb 763d
00000350: d12b c23d 0072 573b 990f 6f3c 03e1 293d
00000360: 41f1 933d 4b45 aabc bc3f 993d 4821 0a3d
00000370: 7c41 f6bc b63f 84bc 3ed7 723d 4768 a83d
00000380: c9d5 4cbd 4b59 bf3c 8f67 febc 3451 173d
00000390: a5a4 9dbd 50bf bbbb 41e3 973d 017d 873d
000003a0: 12d5 c63d cee1 4e3d eada a13c 4991 22bd
000003b0: 6822 abbd d517 a33d ce95 3bbd 9d29 73bd
000003c0: e14e 75bd 0a71 e9bc 22b2 ca3d 360f 893d
000003d0: 1815 c03c 2c37 843c de53 50bd fefa 47bd
000003e0: 48ae a53d 18b7 ddbd 4abb e4bb dbfd 663d
000003f0: 203b f83b aa34 1b3d e5ea 833d 6bf0 703d

value.0.bias f4 [64]
0.022598736 -0.07485294 0.05324089 -0.034311384 0.058163464 0.013488339 0.07520132 0.041447464
0.009191855 0.06202346 0.0757248 0.08459313 0.023790846 -0.013009398 -0.04302827 -0.053220734
-0.056087103 -0.025388254 -0.047184322 -0.006763193 0.08169635 -0.0527337 0.07304119 0.062393267
0.032608885 0.04836568 0.08469563 0.07985586 0.02288242 0.014148634 -0.08180446 0.03830202
-0.061492443 0.01928973 -0.049191836 -0.05816192 -0.036761343 -0.047760863 -0.08706387 -0.028329642
0.035152502 0.0893872 0.03771096 0.04911793 0.06887544 0.0673831 0.07842788 0.061569013
0.011625968 -0.039952245 0.0010426969 0.081977725 0.08099226 0.07203588 0.033384804 0.015220558
0.034902725 -0.06858431 -0.07631315 0.030883089 0.046155307 0.07505068 -0.06788231 -0.032059345
00000000: fc20 b93c 804c 99bd 1f13 5a3d 188a 0cbd
00000010: d03c 6e3d 32fe 5c3c 2603 9a3d d1c4 293d
00000020: 6f99 163c 500c 7e3d 9b15 9b3d 2a3f ad3d
00000030: 05e5 c23c 5f25 55bc 693e 30bd fcfd 59bd
00000040: 97bb 65bd 07fb cfbc 5944 41bd c69d ddbb
00000050: 6a50 a73d 4bff 57bd 9f96 953d 1590 7f3d
00000060: e590 053d 171b 463d e774 ad3d 788b a33d
00000070: ea73 bb3c accf 673c 1989 a7bd 94e2 1c3d
00000080: 80df 7bbd 7f05 9e3c 617d 49bd 323b 6ebd
00000090: 1093 16bd e5a0 43bd 8b4e b2bd 9113 e8bc
000000a0: 12fc 0f3d a310 b73d cf76 1a3d e22f 493d
000000b0: 910e 8d3d 2700 8a3d cc9e a03d ca2f 7c3d
000000c0: d87a 3e3c f7a4 23bd 1aab 883a f0e3 a73d
000000d0: 45df a53d 8c87 933d 81be 083d a65f 793c
000000e0: 29f6 0e3d ee75 8cbd 124a 9cbd 88fe fc3c
000000f0: 590d 3d3d 2cb4 993d e105 8bbd a950 03bd

value.2.weight f4 [1, 64]
-0.005993083 0.10484353 -0.03583954 0.114825614 0.060164087 -0.08104425 -0.08139482 -0.0997628
-0.03846912 -0.007846897 0.02561104 -0.015733952 0.04130394 0.16862491 0.07453695 -0.02072518
0.13019282 -0.041021835 -0.060408667 -0.089228116 0.088670366 -0.03078077 0.032654505 0.12952267
0.08467781 0.004617889 0.10448713 0.111929245 -0.096572354 -0.11575062 0.09163557 0.012362828
-0.047145102 -0.10167551 -0.06796288 -0.12395552 -0.08678356 -0.06714683 -0.06459791 0.109841146
-0.076700196 0.08176204 0.036411017 0.020803317 0.0043289666 0.13295457 -0.11476767 0.1471393
-0.05627569 0.13147397 0.060074776 0.11600111 0.08773176 -0.10193928 0.07175788 -0.038235094
-0.043327663 -0.06806882 0.0038923204 -0.058660638 -0.085961275 0.08660402 0.07462678 0.026504569
00000000: a061 c4bb 34b8 d63d 7bcc 12bd b129 eb3d
00000010: 9e6e 763d 87fa a5bd 54b2 a6bd 7050 ccbd
00000020: cc91 1dbd 4590 00bc 3ece d13c 7de4 80bc
00000030: 522e 293d 02ac 2c3e d4a6 983d dac7 a9bc
00000040: 4451 053e 8306 28bd 146f 77bd 3bbd b6bd
00000050: cf98 b53d f427 fcbc bbc0 053d 97a1 043e
00000060: 8f6b ad3d a951 973b 59fd d53d 293b e53d
00000070: bac7 c5bd a90e edbd 6eab bb3d 758d 4a3c
00000080: 391b 41bd 403b d0bd 1f30 8bbd 64dc fdbd
00000090: 94bb b1bd 4784 89bd e94b 84bd 65f4 e03d
000000a0: fe14 9dbd db72 a73d b823 153d b86b aa3c
000000b0: 01da 8d3b 3e25 083e 500b ebbd afab 163e
000000c0: 5781 66bd 1da1 063e f810 763d fd91 ed3d
000000d0: b6ac b33d 8bc5 d0bd ccf5 923d 679c 1cbd
000000e0: 5978 31bd aa67 8bbd 4d16 7f3b 2346 70bd
000000f0: 770c b0bd 735d b13d edd5 983d 1c20 d93c
