models/ppo_final.pt (torch, 705425 bytes, 12 tensors)

log_std f4 [8]
0.0 0.0 0.0 0.0 0.0 0.0 0.0 0.0
00000000: 0000 0000 0000 0000 0000 0000 0000 0000
00000010: 0000 0000 0000 0000 0000 0000 0000 0000

features.0.weight f4 [256, 488]
0.019345017 0.04165346 0.026661374 -0.039844155 0.042333767 -0.025896985 0.004979893 -0.02231954
0.009011722 0.026983421 -0.023474187 -0.026414603 -0.0012509982 0.04267788 0.0046142307 0.034756806
-0.0021816043 0.014693784 0.015395946 0.007299363 -0.009500157 0.04005766 0.005468948 -0.024921605
0.025105081 -0.033777025 0.015578181 -0.035355322 -0.008585309 -0.016617328 0.02511663 -0.02606988
-0.023408918 0.01870556 -0.041520517 -0.024516053 -0.036148608 0.04145849 -0.02058572 -0.00810097
0.03269765 0.027123334 -0.014441487 0.04133646 -0.008323008 -0.001927215 -0.030991627 0.00537081
-0.0056431317 -0.040196586 -0.011004282 -0.043031376 0.023290472 0.042382132 0.009647812 -0.033997398
0.021705385 -0.02950573 0.013497353 -0.0059270174 0.0045161466 -0.031065606 0.019289155 0.005030214
-0.04010016 0.024851982 -0.044755425 -0.0023414334 -0.037874598 -0.031537164 -0.0006561639 0.018019257
0.015804961 -0.043746274 0.01987107 -0.0009653748 -0.0034236717 0.022108914 -0.011672874 0.04290642
0.044591155 0.033862486 -0.0036824914 0.0449536 -0.044724643 -0.024285888 0.042487696 0.030554889
-0.019362167 -0.023997573 -0.04196237 -0.004239276 -0.004055849 0.031997338 -0.0027045864 -0.028410088
0.012115488 -0.014011863 0.028204465 -0.039690398 0.0035884709 0.032649018 -0.02236244 0.013267851
0.040045116 0.018144064 0.010257319 0.014914089 0.021225186 0.023880154 0.044030726 0.033599153
-0.011361197 -0.037017338 0.021608133 -0.011225954 0.03631672 0.024318784 0.022283604 -0.008825225
0.006950414 -0.030724285 0.035706908 -0.0055733565 -0.010477037 0.016159 -0.014691792 0.0021068596
0.009078762 -0.042673152 -0.033412453 0.03521658 -0.033125628 -0.008490214 0.010536105 -0.035428807
0.028911086 -0.016406812 0.020474672 0.03768485 -0.010639559 0.018893002 -0.007647703 0.03313531
0.032614067 0.040485546 0.018782431 -0.02153838 -0.0032780457 -0.019499136 -0.0049979924 0.03039848
0.0018577963 -0.026306035 -0.00039263308 -0.0055314703 0.008150119 -0.0036184636 0.037036523 0.0023315311
0.0045437925 0.021137075 -0.02056926 -0.026758086 -0.043294445 0.040727254 -0.027115157 0.01405254
-0.011257856 -0.03316994 -0.042677045 0.04260276 0.016790433 0.043780856 -0.03137377 0.028024891
-0.010307974 0.028064208 0.009572975 -0.023508636 0.010042004 -0.026941093 0.02520582 -0.04091244
-0.02074892 0.03704703 -0.012427241 0.01081099 0.033504087 0.03685053 -0.01272241 0.015978675
0.037306502 0.00593788 -0.03885185 -0.004567844 -0.035658173 0.031319093 -0.004001497 0.038294956
-0.0169358 0.017981872 0.023664217 0.019678371 0.031431798 -0.031123605 0.012319599 0.04003109
0.03933836 0.016675642 0.010653465 0.043165196 -0.002374362 0.00973983 0.031040205 -0.0074313474
0.038444012 -0.005665251 0.03536586 0.018385513 -0.020482412 0.0073703793 0.020650227 -0.008010456
0.04257208 -0.033372074 0.003951996 -0.012503739 0.003408033 0.024234466 0.026413966 0.02092889
0.016474314 0.0407863 -0.004424031 0.030268736 -0.0210703 -0.011012036 -0.014515321 0.0422563
0.012018203 -0.02105321 0.0011056529 -0.03917764 -0.01111249 -0.02001934 -0.026705138 -0.011389409
-0.028524917 -0.009336016 0.031267628 0.0013086367 0.037871942 -0.0015287593 -0.012745118 0.040900793
00000000: 7179 9e3c d29c 2a3d f468 da3c a033 23bd
00000010: 2c66 2d3d ea25 d4bc 5f2e a33b 78d7 b6bc
00000020: e7a5 133c 560c dd3c f04c c0bc 7063 d8bc
00000030: 89f8 a3ba 00cf 2e3d f932 973b 275d 0e3d
00000040: 3ff9 0ebb 32be 703c 473f 7c3c 7f2f ef3b
00000050: 8ca6 1bbc 8013 243d dc34 b33b 6528 ccbc
00000060: 2ca9 cd3c c759 0abd a03b 7f3c bed0 10bd
00000070: 65a9 0cbc 1021 88bc 64c1 cd3c 8090 d5bc
00000080: 0fc4 bfbc 673c 993c 6b11 2abd e4d5 c8bc
00000090: 9010 14bd 61d0 293d 62a3 a8bc eeb9 04bc
000000a0: f9ed 053d c131 de3c fd9b 6cbc 6b50 293d
000000b0: 3a5d 08bc 9b9a fcba 27e2 fdbc 9ffd af3b
000000c0: 05ea b8bb 2da5 24bd 4e4b 34bc ab41 30bd
000000d0: a9cb be3c e398 2d3d db11 1e3c db40 0bbd
000000e0: 7ecf b13c 00b6 f1bc 0024 5d3c 6d37 c2bb
000000f0: 2ffc 933b 4c7d febc 4a04 9e3c 7ed4 a43b
00000100: 1140 24bd 6296 cb3c 7751 37bd bc72 19bb
00000110: 6522 1bbd 1d2d 01bd 6a02 2cba 1f9d 933c
00000120: 6879 813c 4b2f 33bd a7c8 a23c 3511 7dba
00000130: ae5f 60bb c11d b53c 953f 3fbc a4be 2f3d
00000140: 37a5 363d 64b3 0a3d f455 71bb 4421 383d
00000150: 3031 37bd 33f3 c6bc 9407 2e3d 3f4e fa3c
00000160: 689d 9ebc 8f96 c4bc bce0 2bbd a0e9 8abb
00000170: ede6 84bb a40f 033d 6e3f 31bb 46bc e8bc
00000180: 0a80 463c 0392 65bc 0d0d e73c 6692 22bd
00000190: 8d2c 6b3b faba 053d 7031 b7bc 6761 593c
000001a0: 5906 243d dca2 943c 500e 283c 395a 743c
000001b0: 71e0 ad3c 50a0 c33c 9059 343d 449f 093d
000001c0: 5024 3abc 7e9f 17bd 8a03 b13c 10ed 37bc
000001d0: d7c0 143d 3038 c73c 1b8c b63c ad97 10bc
000001e0: 4cc0 e33b 7fb1 fbbc 6841 123d b4a0 b6bb
000001f0: e1a7 2bbc e15f 843c d8b5 70bc 3d13 0a3b
00000200: 16bf 143c 0bca 2ebd 7fdb 08bd 433f 103d
00000210: bdae 07bd 8a1a 0bbc a19f 2c3c cc1d 11bd
00000220: f1d6 ec3c 9467 86bc 80ba a73c 6e5b 1a3d
00000230: 8b51 2ebc 7fc5 9a3c 9599 fabb e4b8 073d
00000240: 5496 053d 2cd4 253d 9ddd 993c 4271 b0bc
00000250: 7bd4 56bb a7bc 9fbc 33c6 a3bb 3c06 f93c
00000260: 4d81 f33a c17f d7bc 52da cdb9 5641 b5bb
00000270: 1488 053c bf23 6dbb 9cb3 173d 9acc 183b
00000280: 18e4 943b a927 ad3c dd80 a8bc c633 dbbc
00000290: 8455 31bd 9fd1 263d 9b20 debc a03c 663c
000002a0: df72 38bc 34dd 07bd 20ce 2ebd 3b80 2e3d
000002b0: 178c 893c 8e53 333d c881 00bd 7594 e53c
000002c0: c7e2 28bc e9e6 e53c f8d7 1c3c 2f95 c0bc
000002d0: 3887 243c 91b3 dcbc 707c ce3c cd93 27bd
000002e0: a4f9 a9bc a0be 173d a09b 4bbc 9420 313c
000002f0: 953b 093d 95f0 163d a871 50bc b6e5 823c
00000300: b4ce 183d 8c92 c23b 1e23 1fbd daad 95bb
00000310: 4e0e 12bd 7348 003d fd1e 83bb 2cdb 1c3d
00000320: f2bc 8abc b84e 933c 76db c13c 8934 a13c
00000330: a1be 003d eef6 febc 25d8 493c a4f7 233d
00000340: 4321 213d 5b9b 883c df8b 2e3c fdcd 303d
00000350: 2f9b 1bbb cf93 1f3c 0748 fe3c a982 f3bb
00000360: 7877 1d3d 92a3 b9bb cbdb 103d 379d 963c
00000370: bbca a7bc 3983 f13b aa2a a93c 4a3e 03bc
00000380: 1060 2e3d 28b1 08bd bf7f 813b 7cdc 4cbc
00000390: 4e59 5f3b 5c87 c63c 1a62 d83c 1073 ab3c
000003a0: 24f5 863c 890f 273d 76f7 90bb 24f6 f73c
000003b0: 9f9b acbc d46b 34bc abd1 6dbc f114 2d3d
000003c0: ffe7 443c c877 acbc 8eeb 903a bc78 20bd
000003d0: 2911 36bc 99ff a3bc bcc4 dabc a59a 3abc
000003e0: 16ad e9bc 17f6 18bc 7c12 003d 9086 ab3a
000003f0: 9c1f 1b3d a660 c8ba e6d0 50bc 9787 273d

features.0.bias f4 [256]
0.024389844 -0.004144835 0.018980283 0.009324937 0.023225823 -0.008930972 -0.0135494545 0.039115567
0.034190245 0.0013635014 -0.015981082 0.028799063 0.016864562 0.038582597 -0.03271024 -0.009240101
0.008788087 -0.044178985 -0.0006542266 0.038160644 -0.042609684 -0.029157428 -0.017427493 0.04437624
-0.04318092 0.023674278 0.03640414 -0.03318269 0.010806889 -0.016485954 -0.023216601 -0.036135454
0.022109725 0.014606816 -0.0443165 0.02725738 0.044705458 0.025839686 -0.008555159 0.016254008
0.009342773 -0.028972339 0.017262926 -0.0084300125 -0.009904177 0.0014628213 -0.023323769 -0.03018756
0.038541835 -0.033223342 -0.03592862 -0.021492938 -0.0014291372 0.030194866 -0.034885682 -0.03517976
-0.044301257 -0.025794698 -0.045139562 0.023410693 0.018522386 0.012010961 -0.012236727 -0.028176626
0.03366008 0.0008656988 0.033279393 0.029165734 -0.0432457 -0.028975701 0.011726832 0.027438961
-0.01581379 0.025942778 0.038086414 -0.013326078 0.02470608 0.009731094 -0.03003431 0.011550414
0.025072208 0.0064482456 -0.0315868 -0.019300573 -0.028378136 -0.003973441 -0.027386362 -0.012617511
0.04174016 0.003970867 -0.03788364 -0.022530833 0.022883592 0.0060530705 -0.03328206 0.03790984
-0.017431697 0.028527727 0.019333404 -0.004568189 -0.042165693 0.0095313 -0.03833212 0.013854597
0.0440467 0.032240093 -0.026960071 0.028131938 -0.009189316 -0.042732034 -0.040632688 0.0061260345
0.042829525 0.031019181 0.022133917 -0.013307731 -0.03544191 0.041968975 0.01383054 0.021740776
0.012925847 -0.02117532 0.03169373 -0.02308804 0.037329532 -0.035199028 -0.0023786414 0.027387938
-0.041326392 0.02223452 0.006655924 0.037499722 -0.0074217473 -0.006255272 0.0034000303 -0.015779827
-0.013901367 0.035885956 -0.03472881 0.030856 -0.018711243 0.027759638 0.03523546 0.004381459
0.04229788 -0.003295298 -0.0043520383 0.018910961 -0.018485313 -0.010876782 -0.02731525 0.044942796
-0.013582777 0.031721413 -0.0038501183 0.04351776 -0.04025446 -0.021255093 0.026965566 0.040090576
0.044029314 0.021529514 -0.0023398309 0.0442213 -0.040103488 -0.009919318 -0.03519647 -0.026194783
0.025235457 -0.0044968817 -0.022647724 0.03330924 -0.020487543 -0.008233466 0.021208938 0.02087212
0.031191567 -0.014899384 0.0043541053 0.039269708 0.0022700343 0.042892005 -0.04433489 0.04015505
0.03907192 0.04167343 -0.038553555 0.039993986 -0.012847487 0.044330817 -0.002820203 -0.01682635
0.033735063 -0.0220653 0.019350931 -0.04344005 -0.03787029 -0.038007967 -0.031108754 0.0030012184
-0.03547244 -0.003080345 0.02250853 0.025503548 0.035149913 -0.008158489 -0.0034031603 -0.019106342
-0.023594135 -0.0045902547 -0.03333775 0.0019211117 -0.030967873 0.04211597 0.010692335 -0.03697763
-0.04120881 0.03103852 0.012546132 -0.036252096 -0.0019146523 -0.039213426 0.04478406 0.008419285
0.02985148 -0.00044269505 -3.2275573e-05 -0.016904112 -0.016020153 -0.019132243 0.0017012644 0.030814465
0.0024562625 -0.009756338 0.035963576 -0.011505566 0.0140579855 0.03876268 0.009143204 0.035391226
0.01285264 0.03552829 0.02684295 0.031245783 0.031417243 -0.0074801357 0.010722975 -0.04323877
0.03744204 0.0043608667 -0.040755335 0.007933731 -0.01780954 0.021514405 0.042145602 -0.018409127
00000000: 36cd c73c 65d1 87bb 8a7c 9b3c 9fc7 183c
00000010: 1544 be3c 3653 12bc 88fe 5dbc a537 203d
00000020: 120b 0c3d 84b7 b23a c2ea 82bc 03ec eb3c
00000030: 8d27 8a3c c908 1e3d 2cfb 05bd cb63 17bc
00000040: e9fb 0f3c 06f5 34bd 6780 2bba 564e 1c3d
00000050: 7e87 2ebd 8fdb eebc 1ac4 8ebc dcc3 353d
00000060: 7ade 30bd 8ff0 c13c 821c 153d 93ea 07bd
00000070: 610f 313c 8d0d 87bc be30 bebc c502 14bd
00000080: 741f b53c 6d51 6f3c 3885 35bd de4a df3c
00000090: 121d 373d c0ad d33c f02a 0cbc 2027 853c
000000a0: 6e12 193c 6657 edbc fb6a 8d3c 091e 0abc
000000b0: 2145 22bc 23bc bf3a 7d11 bfbc e74b f7bc
000000c0: 0bde 1d3d 3315 08bd e329 13bd f511 b0bc
000000d0: e351 bbba 395b f73c 4ae4 0ebd a718 10bd
000000e0: 3c75 35bd 674f d3bc 43e4 38bd c8c7 bf3c
000000f0: 42bc 973c 9fc9 443c 8e7c 48bc abd2 e6bc
00000100: 27df 093d 10f0 623a f94f 083d faec ee3c
00000110: 6722 31bd 735e edbc e621 403c acc7 e03c
00000120: ec8b 81bc f385 d43c 8000 1c3d 9f55 5abc
00000130: 6864 ca3c 2b6f 1f3c 830a f6bc f33d 3d3c
00000140: 3b64 cd3c ce4b d33b 2961 01bd 3c1c 9ebc
00000150: 4479 e8bc a433 82bb 5d59 e0bc adb9 4ebc
00000160: bbf7 2a3d 0c1e 823b e02b 1bbd 9592 b8bc
00000170: 5f76 bb3c d658 c63b c552 08bd 5947 1b3d
00000180: ebcc 8ebc fbb2 e93c 1661 9e3c bfb0 95bb
00000190: efb5 2cbd 2b29 1c3c 2402 1dbd 64fe 623c
000001a0: 506a 343d 300e 043d 5edb dcbc f374 e63c
000001b0: c98e 16bc c907 2fbd 766e 26bd e7bc c83b
000001c0: 036e 2f3d f01b fe3c 3052 b53c ab08 5abc
000001d0: 892b 11bd a9e7 2b3d 7d99 623c b619 b23c
000001e0: efc6 533c dd77 adbc 49d1 013d 2123 bdbc
000001f0: dae6 183d db2c 10bd fbe2 1bbb ab5c e03c
00000200: dd45 29bd 2b25 b63c f019 da3b 4f99 193d
00000210: 2132 f3bb 06f9 ccbb 0bd3 5e3b b244 81bc
00000220: 8fc2 63bc 27fd 123d cc3f 0ebd b9c5 fc3c
00000230: 5248 99bc 2e68 e33c 0f53 103d 5892 8f3b
00000240: 8b40 2d3d edf5 57bb 8b9b 8ebb 29eb 9a3c
00000250: 836e 97bc 8834 32bc 3bc4 dfbc f015 383d
00000260: 4c8a 5ebc 50ee 013d 4452 7cbb ae3f 323d
00000270: dce1 24bd 291f aebc e4e6 dc3c 0436 243d
00000280: 1558 343d aa5e b03c d957 19bb 6521 353d
00000290: 8e43 24bd a384 22bc 2c2a 10bd 7196 d6bc
000002a0: 97ba ce3c 945a 93bb b887 b9bc 456f 083d
000002b0: 7ed5 a7bc a9e5 06bc 5ebe ad3c 02fc aa3c
000002c0: 7585 ff3c 8c1c 74bc e2ac 8e3b 46d9 203d
000002d0: dbc4 143b 87af 2f3d 8098 35bd 9f79 243d
000002e0: e109 203d c2b1 2a3d 55ea 1dbd bcd0 233d
000002f0: 447e 52bc 3b94 353d 28d3 38bb 6ad7 89bc
00000300: c72d 0a3d 4ac2 b4bc d885 9e3c 32ee 31bd
00000310: e11d 1bbd 3eae 1bbd c9d7 febc 17b0 443b
00000320: 8d4b 11bd 9ddf 49bb cf63 b83c d1ec d03c
00000330: 5bf9 0f3d 2fab 05bc 8e07 5fbb e784 9cbc
00000340: 7d48 c1bc d969 96bb 2a8d 08bd d0cd fb3a
00000350: 56b0 fdbc cc81 2c3d e72e 2f3c db75 17bd
00000360: 92ca 28bd 7f44 fe3c 4b8e 4d3c 147d 14bd
00000370: 12f5 faba 429e 20bd 7e6f 373d 0af1 093c
00000380: 178b f43c 8619 e8b9 a25f 07b8 7e7a 8abc
00000390: b23c 83bc 39bb 9cbc f6fc de3a 9e6e fc3c
000003a0: 3ff9 203b 0cd9 1fbc 8b4e 133d d781 3cbc
000003b0: 7753 663c 9ec5 1e3d 61cd 153c 64f6 103d
000003c0: e193 523c 1d86 113d bfe5 db3c 28f7 ff3c
000003d0: 5eaf 003d ed1b f5bb 6baf 2f3c 231b 31bd
000003e0: d35c 193d 9ae5 8e3b 11ef 26bd 7bfc 013c
000003f0: 50e5 91bc fa3e b03c dea0 2c3d bdce 96bc

features.2.weight f4 [128, 256]
0.036382183 -0.053590678 -0.00010718405 -0.0574869 -0.011623077 -0.04383608 -0.015411623 0.043080293
-0.03941317 0.034469947 0.055102713 -0.06028617 -0.0110612735 -0.051838033 0.025841892 0.037208118
0.01971452 0.04099542 -0.027033404 0.023793451 -0.055395126 -0.045201607 -0.055854894 -0.0128687695
-0.047012508 -0.019861616 -0.013085626 -0.0519718 0.00044630468 -0.0075048357 -0.013821296 0.007998988
-0.043522917 0.041081518 -0.05799356 -0.052426033 0.017695881 0.035385802 -0.039159164 0.056739822
-0.056887515 0.04042718 -0.04358168 0.035844676 0.031953864 0.009163901 -0.03660471 -0.019659296
0.043665297 -0.05564598 -0.049613133 -0.018338948 -0.053452656 0.021527097 -0.05104485 -0.057130612
0.05087425 -0.030898273 -0.018768795 0.045993567 0.004501529 0.010399319 -0.01658342 0.055666506
0.023443498 -0.027577475 -0.0331671 -0.052310064 0.05980084 0.0013776496 0.024951316 0.026803032
0.05640956 0.05790165 0.026437134 -0.062288806 -0.042283595 -0.0044477805 0.029445007 0.015572421
0.04252027 -0.047246702 0.021016844 -0.005621396 0.053895444 -0.052651457 0.039614096 0.0018022284
-0.030349188 0.02190455 0.004105173 -0.03797148 0.008210808 -0.0060934424 0.012260094 0.05548326
0.0071752593 -0.025147319 -0.013802879 0.024987467 -0.018607497 0.044596076 0.042195007 0.058180712
0.031085186 -0.027612023 0.014930427 -0.043569006 -0.016623825 0.00090295076 0.045576565 0.012244657
0.0154879615 0.046457507 0.005891368 -0.041065924 -0.006676115 -0.044842944 -0.013891712 -0.00010615587
-0.04781978 0.019308418 0.060618527 -0.0021778867 -0.026458994 0.016505353 0.04459493 -0.038665198
-0.025094174 0.062304445 -0.062474467 0.04845786 0.05479697 0.024645701 -0.013870396 0.047160305
0.057816096 0.026925243 -0.028314874 0.03688363 -0.025147617 -0.031806603 0.024664156 -0.04537967
-0.02643311 0.01660373 -0.040172502 0.018436804 0.029185846 -0.017503634 0.062374033 -0.049081497
0.009342641 -0.008727603 -0.051542617 0.005069196 -0.025275156 -0.04086937 0.061929166 0.013718709
-0.0032113194 -0.04881402 -0.038211763 0.031307176 -0.021539837 0.039970785 -0.056600027 -0.03829041
-0.005648069 -0.043320186 0.03709016 0.0034766644 -0.056686923 0.0075512603 -0.04087454 -0.031089783
-0.055656105 -0.04282596 -0.022325307 -0.042401038 0.0005444735 0.058194287 0.011248305 0.009635113
-0.024638541 -0.05548007 -0.033668876 0.005268365 -0.038779557 0.017614178 0.0486131 0.038371816
-0.0103931725 0.037389018 -0.04247129 -0.025411353 0.0033713803 -0.024262533 -0.01988075 0.061682515
0.003871955 0.014706284 0.04467798 -0.058226906 0.011554807 -0.036446534 -0.05306524 0.016369618
-0.0140438005 -0.016216248 -0.023467585 0.025559999 -0.06104655 0.059095092 -0.016946808 0.007648878
0.007568963 -0.013624638 0.02629862 -0.01655946 -0.012811556 0.0186209 -0.045376845 -0.023751587
-0.02051691 0.008619331 -0.008341797 0.06066323 -0.028531887 -0.05784864 0.01581689 -0.03526321
0.015479304 0.062410302 0.019793801 -0.02672755 -0.030383311 -0.056102805 0.054589197 -0.048889868
-0.03334023 0.024416648 -0.053656958 -0.006558992 -0.020690814 -0.007449493 -0.023238294 0.03283011
-0.06053657 0.02173683 -0.032284923 0.03869962 -0.05618383 0.05834438 -0.040385887 0.05267369
00000000: 7c05 153d e681 5bbd 00c8 e0b8 6277 6bbd
00000010: b86e 3ebc 768d 33bd 0881 7cbc f674 303d
00000020: b46f 21bd 5c30 0d3d 62b3 613d a2ee 76bd
00000030: 583a 35bc 1e54 54bd 60b2 d33c 8a67 183d
00000040: 5880 a13c d0ea 273d 2875 ddbc 7cea c23c
00000050: 00e6 62bd 5225 39bd 1ac8 64bd 88d7 52bc
00000060: 3090 40bd d4b4 a2bc 1865 56bc 62e0 54bd
00000070: 00fe e939 20eb f5bb b872 62bc 300e 033c
00000080: 1645 32bd 1845 283d a88a 6dbd aebc 56bd
00000090: f4f6 903c b4f0 103d 5c65 20bd 0468 683d
000000a0: e202 69bd f896 253d b482 32bd ded1 123d
000000b0: 0ee2 023d 3024 163c d2ee 15bd 880c a1bc
000000c0: 62da 323d 0aed 63bd 2437 4bbd 903b 96bc
000000d0: 2cf1 5abd 9859 b03c 6814 51bd ca01 6abd
000000e0: 8461 503d 601e fdbc 04c1 99bc c063 3c3d
000000f0: 9081 933b e861 2a3c f4d9 87bc 9002 643d
00000100: 940c c03c 28ea e1bc 3ada 07bd 1443 56bd
00000110: baf1 743d 4092 b43a b466 cc3c 0892 db3c
00000120: b60d 673d 482a 6d3d b092 d83c 8c22 7fbd
00000130: 9031 2dbd b0be 91bb a836 f13c 7823 7f3c
00000140: bc29 2e3d c285 41bd 842b ac3c b033 b8bb
00000150: 78c1 5c3d 0ea9 57bd 6442 223d c038 ec3a
00000160: dc9e f8bc 2c71 b33c b084 863b fc87 1bbd
00000170: a086 063c 80ab c7bb 90de 483c 6a42 633d
00000180: 701e eb3b c001 cebc 7825 62bc 84b2 cc3c
00000190: c06e 98bc 60aa 363d acd4 2c3d e64e 6e3d
000001a0: 5ca6 fe3c 9c32 e2bc c09e 743c 6a75 32bd
000001b0: b02e 88bc 00b4 6c3a 7eae 3a3d d09d 483c
000001c0: 38c1 7d3c 3a4a 3e3d 600c c13b be34 28bd
000001d0: 50c3 dabb 3cad 37bd 109a 63bc 00a0 deb8
000001e0: acde 43bd b02c 9e3c 224b 783d e0ba 0ebb
000001f0: 88c0 d8bc 3c36 873c 2ca9 363d 665f 1ebd
00000200: 4c92 cdbc f232 7f3d 3ae5 7fbd c07b 463d
00000210: ca72 603d c8e5 c93c a840 63bc 2a2b 413d
00000220: 92d0 6c3d 5492 dc3c 98f4 e7bc 4a13 173d
00000230: 6002 cebc a447 02bd 7c0c ca3c 08e0 39bd
00000240: 408a d8bc 8c04 883c ec8b 24bd c808 973c
00000250: 2817 ef3c c863 8fbc ea7b 7f3d ae09 49bd
00000260: e011 193c 38fe 0ebc 5a1e 53bd 801b a63b
00000270: d80d cfbc a466 27bd 70a9 7d3d 70c4 603c
00000280: 0075 52bb 36f1 47bd f083 1cbd f43b 003d
00000290: 5074 b0bc 68b8 233d 6ed5 67bd 68d6 1cbd
000002a0: 7013 b9bb 8270 31bd daeb 173d c0d8 633b
000002b0: 8c30 68bd 9070 f73b 106c 27bd 00b0 febc
000002c0: a8f7 63bd 466a 2fbd 90e3 b6bc b6ac 2dbd
000002d0: 00bb 0e3a 225d 6e3d d04a 383c 98dc 1d3c
000002e0: c4d6 c9bc 123f 63bd 60e8 09bd 40a2 ac3b
000002f0: 50d7 1ebd 9c4b 903c 881e 473d c42b 1d3d
00000300: 2048 2abc 3a25 193d 60f6 2dbd 782b d0bc
00000310: 60f2 5c3b 38c2 c6bc f4dc a2bc cea6 7c3d
00000320: a0c0 7d3b a0f2 703c 4200 373d 567f 6ebd
00000330: 6050 3d3c f648 15bd f05a 59bd 9419 863c
00000340: f817 66bc f0d7 84bc 183f c0bc 3463 d13c
00000350: f20b 7abd b20d 723d 08d4 8abc 70a3 fa3b
00000360: 1005 f83b e039 5fbc 3470 d73c b4a7 87bc
00000370: 90e7 51bc dc8a 983c 12dd 39bd b092 c2bc
00000380: 1413 a8bc 1838 0d3c 08ac 08bc 027a 783d
00000390: b4bb e9bc b2f2 6cbd 6c92 813c 2870 10bd
000003a0: e89c 7d3c f2a1 7f3d 9c26 a23c bcf3 dabc
000003b0: 6ce6 f8bc 0ecc 65bd ec98 5f3d be40 48bd
000003c0: c48f 08bd 6c05 c83c 66c7 5bbd d0ec d6bb
000003d0: c87f a9bc e01a f4bb 3c5e bebc de78 063d
000003e0: 32f5 77bd 7011 b23c 323d 04bd 7e83 1e3d
000003f0: 0421 66bd 84fa 6e3d ac6b 25bd 5ec0 573d

features.2.bias f4 [128]
0.048378423 -0.054670103 0.03644588 -0.0539089 -0.01253657 0.060930133 -0.00021294504 -0.016881526
-0.005206287 -0.030874722 -0.012945831 -0.038248755 0.033276893 0.03337326 0.039539948 -0.050511323
-0.031811684 0.0545881 -0.047228254 0.037433952 0.010048524 0.041223288 -0.023375303 0.03492751
0.020755187 -0.02539555 0.0070819557 0.05629334 -0.05356656 0.056869827 0.053560317 0.027912013
-0.009682283 -0.057445526 0.03615033 -0.054121666 -0.014298104 0.010816276 0.031128958 -0.057260007
0.042557277 -0.036791377 0.005189568 0.055580348 0.014874138 -0.0071772486 0.013268851 0.029275909
0.050612837 -0.009333603 -0.028673925 -0.039322942 0.042836748 0.05402807 -0.0010151342 -0.055480108
0.0010809973 0.020063147 0.03954666 -0.032229356 -0.055476308 0.017752953 0.035099655 -0.0024733916
0.042791426 0.03158281 -0.007995024 -0.00453604 -0.046262376 0.05220546 0.012807883 -0.06144444
-0.051045246 0.031669118 -0.021419697 -0.018487453 0.041857846 -0.043324724 -0.031352036 -0.013727732
0.044105716 -0.03397721 0.037656225 -0.028260723 0.032191545 -0.02967652 0.032829702 -0.011963271
-0.055120207 -0.010049678 0.007610306 0.018311575 -0.02446904 0.03379678 -0.01791685 -0.0130800605
0.047289692 -0.058118127 -0.017412864 -0.056503415 0.019315884 0.026794836 0.03304574 0.044315316
-0.024534903 0.029703341 0.032236412 -0.0420523 0.0027178824 -0.02888669 -0.016552538 0.030024715
-0.038702555 -0.016020447 -0.040673696 0.033998266 0.003097169 0.047405347 -0.05328694 -0.0065671206
0.057924725 0.0062408 -0.045281194 0.050091743 0.02953092 -0.026373938 0.025467932 -0.02357585
00000000: 7428 463d c2ed 5fbd 4648 153d 94cf 5cbd
00000010: 3066 4dbc e091 793d 004a 5fb9 204b 8abc
00000020: 8099 aabb fcec fcbc c01a 54bc baaa 1cbd
00000030: 5a4d 083d 66b2 083d a4f4 213d f6e4 4ebd
00000040: f84c 02bd c697 5f3d 6a72 41bd 5854 193d
00000050: 90a2 243c c0d9 283d 907d bfbc 2610 0f3d
00000060: c806 aa3c 540a d0bc c00f e83b d893 663d
00000070: 9c68 5bbd 56f0 683d 1062 5b3d bca7 e43c
00000080: 70a2 1ebc 004c 6bbd 5e12 143d aeae 5dbd
00000090: 9842 6abc c036 313c 2802 ff3c 7889 6abd
000000a0: 8a50 2e3d 8eb2 16bd 400d aa3b 38a8 633d
000000b0: a8b2 733c 202f ebbb 9865 593c 08d4 ef3c
000000c0: 684f 4f3d f8eb 18bc 94e5 eabc 1811 21bd
000000d0: 9675 2f3d 8a4c 5d3d 400e 85ba 1c3f 63bd
000000e0: 40b0 8d3a 785b a43c aefb 213d ee02 04bd
000000f0: 203b 63bd a46e 913c a8c4 0f3d a018 22bb
00000100: 1046 2f3d fa5c 013d 90fd 02bc 10a3 94bb
00000110: 9e7d 3dbd 64d5 553d 28d8 513c 2aad 7bbd
00000120: d214 51bd 7ab7 013d 5c78 afbc 0073 97bc
00000130: 2273 2b3d 4475 31bd fe6a 00bd 48ea 60bc
00000140: 32a8 343d b02b 0bbd 6a3d 1a3d 0883 e7bc
00000150: 48db 033d 2c1c f3bc 7078 063d 9801 44bc
00000160: bac5 61bd 68a7 24bc e05f f93b 2802 963c
00000170: 4c73 c8bc 7e6e 0a3d 5cc6 92bc c04d 56bc
00000180: d6b2 413d 460d 6ebd 6ca5 8ebc 2070 67bd
00000190: 583c 9e3c d880 db3c f85a 073d fa83 353d
000001a0: 6cfd c8bc 6c54 f33c 540a 043d 083f 2cbd
000001b0: 801e 323b c8a3 ecbc 3099 87bc 64f6 f53c
000001c0: 9286 1ebd 503d 83bc 7699 26bd c441 0b3d
000001d0: e0f9 4a3b 1c2c 423d 6843 5abd 0031 d7bb
000001e0: 7a42 6d3d a07f cc3b c678 39bd 002d 4d3d
000001f0: d4ea f13c 280e d8bc 20a2 d03c 2422 c1bc

mean.0.weight f4 [64, 128]
0.054269947 0.03099083 0.036922198 0.020125583 -0.020902961 -0.08028578 -0.05804859 0.086347036
0.033563327 0.06679821 -0.033052687 0.052469485 -0.0645169 0.006536934 0.020585733 0.08530611
0.058161408 -0.03248231 0.019666256 0.07715048 0.021721074 -0.04275606 -0.02906828 -0.059296567
-0.046807457 -0.087137945 0.06583979 0.0402302 -0.076607615 -0.045166258 -0.004325257 0.012089865
-0.05950056 -0.059704475 -0.08430107 0.051629163 0.008671946 0.06939159 -0.05153411 0.07774555
0.034692694 -0.08593442 -0.06409358 -0.020571075 0.074628234 -0.02952629 0.031771727 0.06538411
0.024659932 0.011626903 0.031263195 -0.016236125 -0.050570633 -0.08680347 0.02334887 -0.06493451
-0.015562102 0.057881035 -0.05643212 0.0448616 0.04849724 0.023731183 -0.029365985 -0.022660716
-0.04240331 -0.066419005 -0.061791588 -0.00024294497 0.0809465 0.085548975 0.058227863 -0.013255457
-0.04941106 0.085355185 0.050319333 -0.025849178 0.0073264497 -0.01929962 0.040202487 -0.061927922
0.07365618 -0.06818656 -0.076283485 -0.0768381 -0.055107616 0.052800845 0.042981178 -0.05869941
0.04296003 0.07633634 -0.088386394 -0.05154644 0.048791498 0.05724089 -0.045361347 -0.08500786
0.055832826 0.07578583 -0.033926178 0.026576653 -0.029435674 0.0039825505 -0.08457994 -0.028641185
-0.060808524 0.026128475 -0.060407203 -0.063747086 0.06220785 0.03446513 0.003900659 0.010068934
0.07282145 -0.064162426 0.0013600682 0.010736277 -0.015966458 -0.08640221 0.040471006 0.045483634
0.07797654 -0.020851774 -0.041978385 0.087016106 -0.011693654 -0.02611934 0.038548686 -0.081912346
0.078808315 -0.015488514 -0.07928229 0.04705078 0.016406935 -0.08276258 0.04444839 -0.018753378
-0.070490785 0.045725103 -0.085428886 0.07015407 0.0009955191 0.029130489 0.080114245 -0.059518892
-0.04837219 0.05630333 -0.037966985 0.083738685 -0.00919012 0.08035013 -0.08190334 -0.013947014
-0.023168627 -0.054967172 -0.011120361 -0.07216203 -0.03639791 -0.086649105 -0.07901429 -0.070053115
-0.076495536 -0.017989475 0.032711856 -0.07457318 -0.00526529 0.05367444 0.08115482 0.012752624
0.018526332 -0.07492779 -0.02695782 0.0398225 -0.03628453 -0.052270733 -0.040474873 -0.041955166
-0.028578313 -0.053329006 0.028381266 -0.06683199 0.0035149418 0.08525152 0.082198784 -0.0276793
0.060863324 0.07456456 -0.059120912 0.077404484 0.011187428 0.07624253 -0.0004918959 -0.059438676
0.08431134 0.0130455345 -0.018479802 -0.041507997 -0.08562157 0.078036174 0.039753444 0.018002415
-0.0491649 0.049469303 0.022022255 0.012522903 -0.06399316 -0.06469343 0.013636012 0.04029306
0.019847656 0.06624515 -0.01970616 0.08664611 0.052129634 -0.03936427 0.04961257 0.045036476
0.07317154 0.05407296 0.0061570643 0.032706585 -0.074180946 0.042404618 0.02622084 0.087557614
-0.03096551 -0.058225732 0.022045087 -0.08397482 0.03830752 0.07240483 -0.07180562 0.08443204
-0.004484087 -0.061563786 0.054329954 0.05986949 -0.071619466 -0.07912627 0.074817136 -0.084947795
-0.05358053 0.060935058 0.08744565 0.0450614 -0.021151649 0.07037673 0.086594544 0.06090659
-0.027076105 0.062976874 0.053788807 -0.0222405 0.027761687 0.052491445 -0.034562606 -0.06984136
00000000: 2a4a 5e3d 7be0 fd3c bb3b 173d 68de a43c
00000010: b03c abbc df6c a4bd 5cc4 6dbd b7d6 b03d
00000020: b379 093d 80cd 883d 4162 07bd 3eea 563d
00000030: 7021 84bd c733 d63b 69a3 a83c f8b4 ae3d
00000040: a83a 6e3d 2c0c 05bd 211b a13c 1201 9e3d
00000050: 65f0 b13c fa20 2fbd 9a20 eebc f5e0 72bd
00000060: 2db9 3fbd 6175 b2bd 03d7 863d 6cc8 243d
00000070: 74e4 9cbd 4100 39bd e3ba 8dbb 9214 463c
00000080: dcb6 73bd ae8c 74bd 0aa6 acbd 1a79 533d
00000090: c714 0e3c 2e1d 8e3d 6e15 53bd 0f39 9f3d
000000a0: ed19 0e3d 63fe afbd 7f43 83bd ac84 a8bc
000000b0: b0d6 983d 1ee1 f1bc 1223 023d 1be8 853d
000000c0: a003 ca3c c47e 3e3c d60d 003d 9f01 85bc
000000d0: 2723 4fbd 05c6 b1bd 2146 bf3c 62fc 84bd
000000e0: 30f8 7ebc aa14 6d3d 5e25 67bd ccc0 373d
000000f0: 0ba5 463d e667 c23c ef90 f0bc f7a2 b9bc
00000100: 18af 2dbd b006 88bd 2d19 7dbd 0bbf 7eb9
00000110: 47c7 a53d 4d34 af3d 5780 6e3d 6b2d 59bc
00000120: 4063 4abd b3ce ae3d a51b 4e3d a8c1 d3bc
00000130: b712 f03b 3d1a 9ebc 5dab 243d 22a8 7dbd
00000140: 0dd9 963d 65a5 8bbd 843a 9cbd 4b5d 9dbd
00000150: 86b8 61bd b345 583d 080d 303d cb6e 70bd
00000160: dbf6 2f3d 3a56 9c3d ed03 b5bd 5c22 53bd
00000170: 98d9 473d 6c75 6a3d d2cc 39bd 9a18 aebd
00000180: f6b0 643d 9a35 9b3d 2df6 0abd 48b7 d93c
00000190: 1523 f1bc 0e80 823b 3f38 adbd eba0 eabc
000001a0: 5c12 79bd 620b d63c 8b6d 77bd d58d 82bd
000001b0: a9cd 7e3d 4f2b 0d3d 33a2 7f3b 2cf8 243c
000001c0: 6a23 953d 9767 83bd 5144 b23a 36e7 2f3c
000001d0: 17cc 82bc a4f3 b0bd edc4 253d 0c4d 3a3d
000001e0: 2ab2 9f3d 57d1 aabc 87f1 2bbd 8035 b23d
000001f0: bd96 3fbc 3af8 d5bc 3ae5 1d3d a9c1 a7bd
00000200: 4166 a13d 89c3 7dbc c15e a2bd 52b8 403d
00000210: d667 863c 6d7f a9bd 840f 363d afa0 99bc
00000220: 795d 90bd 3f4a 3b3d 57f5 aebd f0ac 8f3d
00000230: 147c 823a 10a3 ee3c f012 a43d 15ca 73bd
00000240: eb21 46bd 529e 663d 4583 1bbd 307f ab3d
00000250: 2892 16bc 9c8e a43d f0bc a7bd 0482 64bc
00000260: 22cc bdbc 4225 61bd 2d32 36bc b0c9 93bd
00000270: fa15 15bd 1675 b1bd 3ed2 a1bd 0278 8fbd
00000280: b1a9 9cbd aa5e 93bc defc 053d d3b9 98bd
00000290: 7488 acbb bbd9 5b3d 8034 a63d 62f0 503c
000002a0: 89c4 973c be73 99bd a5d6 dcbc eb1c 233d
000002b0: 169f 14bd d619 56bd fbc8 25bd 2ed9 2bbd
000002c0: 111d eabc 846f 5abd d47f e83c 36df 88bd
000002d0: f05a 663b 5998 ae3d d657 a83d b3bf e2bc
000002e0: d24b 793d 4eb5 983d c528 72bd 3e86 9e3d
000002f0: 794b 373c 0b25 9c3d 93f2 00ba f875 73bd
00000300: 6cab ac3d f0bc 553c f462 97bc 4a04 2abd
00000310: 5d5a afbd 6ed1 9f3d 82d4 223d cd79 933c
00000320: 2261 49bd 53a0 4a3d 0468 b43c dd2c 4d3c
00000330: d90e 83bd fd7d 84bd 9469 5f3c 560a 253d
00000340: 8d97 a23c 8aab 873d d06e a1bc 8473 b13d
00000350: e285 553d 6e3c 21bd 8d36 4b3d 2b78 383d
00000360: f6da 953d 9c7b 5d3d 33c1 c93b 57f7 053d
00000370: 2eec 97bd 77b0 2d3d 16cd d63c 6851 b33d
00000380: 62ab fdbc 1b7e 6ebd e697 b43c fefa abbd
00000390: 59e8 1c3d fc48 943d d30e 93bd b5ea ac3d
000003a0: 40ef 92bb 4f2a 7cbd 1689 5e3d b639 753d
000003b0: 3aad 92bd f40c a2bd ba39 993d 1cf9 adbd
000003c0: 4277 5bbd 0a97 793d b416 b33d 4d92 383d
000003d0: 3946 adbc ad21 903d 7b58 b13d 3079 793d
000003e0: b5ce ddbc 05fa 803d a751 5c3d b631 b6bc
000003f0: 7a6c e33c 4501 573d 8591 0dbd fd08 8fbd

mean.0.bias f4 [64]
0.048982278 -0.02813556 -0.008999648 -0.008094566 -0.045033053 -0.01800604 -0.0040926696 0.03454168
0.032294326 -0.07440261 -0.0379237 -0.066733435 0.027258337 0.06338122 -0.021674154 0.044917107
-0.07842557 -0.07448837 -0.07798146 0.006654134 0.03965346 0.050610524 -0.07539452 0.06135614
0.015791833 -0.010263253 -0.04892872 0.072179966 -0.058446433 0.086694844 -0.0051949257 0.081420206
-0.020720022 0.051532414 -0.019881248 0.0013782335 0.033418532 -0.085338846 0.032786727 -0.02615743
-0.07058418 -0.0025792606 -0.018360874 0.02676586 0.045946028 -0.04310566 0.00027270065 -0.040220022
0.037505858 0.064350784 -0.004366972 0.0077305855 -0.084350534 0.021386564 0.052548036 0.05992857
0.045892026 -0.040099017 -0.009547631 -0.061081395 0.004052198 0.00451732 0.08269636 0.07064267
00000000: a4a1 483d 8c7c e6bc 4273 13bc 129f 04bc
00000010: 9474 38bd 6781 93bc cd1b 86bb 947b 0d3d
00000020: 0e47 043d 6560 98bd e255 1bbd 8aab 88bd
00000030: e04c df3c 03ce 813d ff8d b1bc 00fb 373d
00000040: 969d a0bd 5c8d 98bd beb4 9fbd ec0a da3b
00000050: ab6b 223d fb4c 4f3d 7168 9abd 9350 7b3d
00000060: e05d 813c 3427 28bc 7b69 48bd 17d3 933d
00000070: 8765 6fbd 118d b13d 323a aabb a3bf a63d
00000080: 09bd a9bc a713 533d 00de a2bc d8a5 b43a
00000090: dfe1 083d 22c6 aebd 604b 063d 1b48 d6bc
000000a0: 708e 90bd d008 29bb 8b69 96bc 1444 db3c
000000b0: e731 3c3d 8f8f 30bd 43f9 8e39 c0bd 24bd
000000c0: be9f 193d 58ca 833d d118 8fbb da50 fd3b
000000d0: f9bf acbd e032 af3c 9c3c 573d a977 753d
000000e0: 47f9 3b3d de3e 24bd ab6d 1cbc 7c30 7abd
000000f0: 4dc8 843b 0706 943b b65c a93d 1bad 903d

mean.2.weight f4 [8, 64]
0.08030622 0.0797966 0.0467771 -0.024684995 -0.09000102 0.10827325 -0.052399024 0.09975919
0.0016167909 0.066015035 -0.05303578 0.015435323 0.09895654 -0.0187615 0.09119934 0.06994249
0.10413104 0.06444429 -0.023321658 -0.0043491423 0.12052637 0.013404921 0.09401384 -0.09859231
0.052213162 -0.06770158 0.104349166 0.11253849 -0.014401704 0.12238346 0.04705642 -0.044732556
-0.027994454 0.029750258 -0.027479008 -0.100085944 -0.02236262 0.11352612 0.099585846 -0.09301691
0.10088989 0.036028966 0.05309871 -0.06361325 -8.8483095e-05 0.09658417 0.021743417 0.04793763
0.024717703 -0.072511375 0.110135704 -0.10593006 0.07937971 0.09913869 -0.03984849 0.07800396
-0.097944245 0.014725357 0.024030939 -0.031108916 0.030410886 -0.024142638 -0.10951221 -0.08709192
-0.040863886 -0.10060798 -0.0397148 -0.023053601 0.029220298 0.087052956 0.06363414 -0.10811049
-0.014642462 0.11567223 -0.010229677 -0.12196782 0.08142801 -0.0750508 -0.10144998 -0.007410094
-0.010729536 0.1024411 0.0012113452 0.0052606016 0.002236113 -0.071195304 0.037010908 0.12028162
0.103575945 0.07462694 -0.11822015 -0.09597738 -0.053370744 -0.03931108 0.08387998 -0.022010684
-0.09405568 0.08964716 -0.0890767 -0.033329785 0.10520628 -0.07622424 0.08384654 -0.053827778
0.04765366 0.10431863 0.044982523 0.098899186 0.039016068 0.103730395 0.07392624 -0.04517357
-0.039112613 0.10808006 -0.09909473 0.061731175 -0.037194625 0.09774071 -0.013930991 -0.111370474
-0.015289694 -0.013124168 0.091080666 -0.054463416 0.08890945 -0.00062666833 0.11406185 -0.070125416
-0.09583725 0.027929172 0.110670835 0.036452577 0.04095468 0.05825731 -0.043127403 0.052629337
-0.07173927 0.07966837 0.115123704 -0.036988065 0.073424354 0.11890927 -0.0479324 0.07578972
-0.06568748 -0.11952531 -0.013524294 -0.10014632 0.12011418 -0.05147992 0.042629108 0.01457724
0.029002622 0.00016322732 0.099607036 -0.038751975 0.0570468 0.06382583 -0.09324458 0.09597418
-0.020027846 -0.08920044 0.008860201 0.11763045 0.026379913 0.057689875 0.05561374 0.1192811
-0.06284076 -0.11870244 -0.0137093365 0.05401309 -0.057897776 -0.07960723 -0.05214992 0.064615235
0.03475213 0.014154598 -0.10641587 -0.103681594 0.046380356 -0.10994275 0.048255548 0.040872246
-0.045299068 0.12277883 0.0018574446 -0.10181497 0.1089998 -0.018386438 -0.0389636 -0.0048286915
0.054614976 -0.089953974 -0.0014584959 0.065441504 -0.04452263 -0.10101475 -0.03254667 0.035334304
0.11900936 -0.060197964 0.06765452 -0.07955089 -0.092310935 -0.082404375 -0.11334658 0.029242873
-0.03406158 -0.06626417 -0.06017977 0.030074194 0.089148164 -0.09003925 -0.0038671643 0.11105645
0.0687349 0.09769203 -0.047354788 -0.083250776 0.039293617 -0.04204139 0.06421313 -0.12123911
0.07760516 -0.03309959 0.11353877 -0.091759756 0.061575666 0.06824444 -0.080816 -0.10520963
-0.0075754523 -0.035659403 0.018845662 -0.0012007803 -0.09313136 -0.07657999 -0.09073153 -0.07643993
-0.11749503 -0.115088984 -0.09504306 -0.022515684 0.08461432 -0.014072359 -0.061803818 0.08557828
-0.103145435 0.024532348 0.008161485 -0.031182915 -0.12400769 -0.038726896 0.033764616 -0.049518347
00000000: 9677 a43d 666c a33d 5899 3f3d 3038 cabc
00000010: 7452 b8bd 5ebe dd3d 5ca0 56bd 8c4e cc3d
00000020: 80ea d33a e432 873d 0c3c 59bd 70e4 7c3c
00000030: baa9 ca3d b8b1 99bc b8c6 ba3d 023e 8f3d
00000040: a842 d53d 5efb 833d 100d bfbc 4083 8ebb
00000050: 88d6 f63d 50a0 5b3c 548a c03d c4ea c9bd
00000060: 78dd 553d 20a7 8abd 04b5 d53d 947a e63d
00000070: 20f5 6bbc 2ea4 fa3d 3cbe 403d 7c39 37bd
00000080: a054 e5bc d0b6 f33c a81b e1bc dcf9 ccbd
00000090: d031 b7bc 6280 e83d aaf3 cb3d a67f bebd
000000a0: 5c9f ce3d 1c93 133d 087e 593d aa47 82bd
000000b0: 0090 b9b8 eccd c53d 401f b23c 405a 443d
000000c0: c87c ca3c d880 94bd d48e e13d dcf1 d8bd
000000d0: d491 a23d 3a09 cb3d 2c38 23bd 8ac0 9f3d
000000e0: fe96 c8bd a042 713c 88dc c43c 20d8 febc
000000f0: 4020 f93c c8c6 c5bc f047 e0bd 405d b2bd
00000100: e460 27bd 8e0b cebd fcab 22bd e8da bcbc
00000110: 685f ef3c d248 b23d 9e52 823d 0869 ddbd
00000120: f0e6 6fbc 90e5 ec3d 609a 27bc 44ca f9bd
00000130: bac3 a63d 3cb4 99bd 02c5 cfbd 60d0 f2bb
00000140: f0ca 2fbc a4cc d13d 00c6 9e3a 2061 ac3b
00000150: c08b 123b d8ce 91bd c098 173d 3656 f63d
00000160: a01f d43d 02d6 983d 681d f2bd ca8f c4bd
00000170: 489b 5abd a804 21bd 44c9 ab3d c04f b4bc
00000180: 44a0 c0bd ee98 b73d d86d b6bd d084 08bd
00000190: 6476 d73d 741b 9cbd bcb7 ab3d 847a 5cbd
000001a0: 7c30 433d 02a5 d53d 983f 383d a88b ca3d
000001b0: 50cf 1f3d 9a70 d43d a466 973d ec07 39bd
000001c0: 8c34 20bd 1459 dd3d 2ef2 cabd d4d9 7c3d
000001d0: 6459 18bd 482c c83d d03e 64bc 3416 e4bd
000001e0: a081 7abc c006 57bc 8088 ba3d 0815 5fbd
000001f0: 2816 b63d 0047 24ba 4299 e93d ea9d 8fbd
00000200: 5246 c4bd b8cb e43c 64a7 e23d 4c4f 153d
00000210: 18c0 273d 389f 6e3d 5ca6 30bd dc91 573d
00000220: 0aec 92bd 2c29 a33d fac5 eb3d cc80 17bd
00000230: 825f 963d b486 f33d c454 44bd a437 9b3d
00000240: 2887 86bd b0c9 f4bd 0095 5dbc 8419 cdbd
00000250: 6cfe f53d 9cdc 52bd dc9b 2e3d 60d5 6e3c
00000260: e896 ed3c 0028 2b39 c6fe cb3d 64ba 1ebd
00000270: e8a9 693d 1eb7 823d 04f7 bebd 1c8e c43d
00000280: 7011 a4bc b8ae b6bd 602a 113c 3ce8 f03d
00000290: b01a d83c 384c 6c3d 3ccb 633d a649 f43d
000002a0: a8b2 80bd 441a f3bd 209d 60bc d43c 5d3d
000002b0: 3826 6dbd 1e09 a3bd 289b 55bd fe54 843d
000002c0: 4058 0e3d b0e8 673c 90f0 d9bd 0457 d4bd
000002d0: 54f9 3d3d aa29 e1bd 9ca7 453d a869 273d
000002e0: 848b 39bd 7873 fb3d 8075 f33a 5e84 d0bd
000002f0: 4a3b df3d 289f 96bc 4c98 1fbd 003a 9ebb
00000300: f4b3 5f3d ca39 b8bd 002b bfba 3206 863d
00000310: 5c5d 36bd d2e0 cebd a84f 05bd b4ba 103d
00000320: 2ebb f33d 2492 76bd 748e 8a3d 94eb a2bd
00000330: 840d bdbd a0c3 a8bd 4022 e8bd c08e ef3c
00000340: 2884 0bbd 82b5 87bd 107f 76bd 285e f63c
00000350: 5093 b63d 8066 b8bd 4070 7dbb 9071 e33d
00000360: e2c4 8c3d c212 c83d 18f7 41bd 627f aabd
00000370: 58f2 203d 9833 2cbd 2c82 833d 364c f8bd
00000380: 74ef 9e3d 7093 07bd 0487 e83d 8aec bbbd
00000390: c436 7c3d bec3 8b3d dc82 a5bd 2678 d7bd
000003a0: 803b f8bb 980f 12bd 3862 9a3c 8063 9dba
000003b0: a8bb bebd f8d5 9cbd 74d1 b9bd 8a8c 9cbd
000003c0: 3ca1 f0bd c6b3 ebbd f0a5 c2bd d072 b8bc
000003d0: 464a ad3d c08f 66bc 0026 7dbd aa43 af3d
000003e0: ea3d d3bd 10f8 c83c c0b7 053c 5073 ffbc
000003f0: bef7 fdbd 18a0 1ebd c44c 0a3d c0d3 4abd

mean.2.bias f4 [8]
-0.012288541 -0.012031898 0.10025534 -0.085867524 0.012586817 -0.11599201 -0.06979704 0.0877793
00000000: e055 49bc 7021 45bc ac52 cd3d 50db afbd
00000010: f038 4e3c 388d edbd c0f1 8ebd a2c5 b33d

value.0.weight f4 [64, 128]
0.06587974 -0.0013084805 0.053106934 0.046653707 0.06461741 0.08072463 -0.022354666 -0.034929767
-0.04451589 -0.048154797 0.0119677875 0.00043110957 -0.042252235 0.03614418 -0.07830152 -0.034355234
0.05087079 -0.08661294 0.036973555 -0.026538553 0.026382504 0.08280476 -0.036578774 -0.041553378
0.032142997 -0.085742444 -0.022241293 -0.029866995 0.034661915 -0.021286929 0.0514652 0.084399186
0.028938932 0.06540164 0.03859822 -0.087410085 -0.071509965 -0.036581453 0.04006982 0.03098216
-0.053379774 -0.05040349 0.009059739 -0.08399551 -0.037174385 -0.08614471 -0.03242866 0.073747315
-0.06022709 0.023669248 0.03701847 -0.045450907 0.025169497 0.008577158 -0.046802398 -0.023083597
-0.041168336 -0.03470854 0.009585637 -0.039490037 -0.034424532 0.015734935 -0.06041229 -0.05488827
0.07492922 0.07569683 -0.049747054 0.07486135 0.08136534 -0.056965943 0.03987055 -0.035808448
-0.041376192 -0.044273295 0.0639431 0.028686957 0.07051302 0.05349337 0.018745549 0.025508873
-0.06441971 0.049336478 -0.008316405 0.044226248 -0.015066055 -0.052153848 -0.031738073 -0.057859562
0.0043497547 -0.0845857 -0.03455656 0.06617998 0.06683681 0.028102223 0.07364236 -0.06123899
-0.027019195 0.0016369519 -0.048440382 -0.035114963 0.0033974363 -0.009608111 -0.04875306 0.087080486
-0.040453136 -0.008977763 0.06519267 -0.026054738 -0.010897795 -0.071783446 -0.025030538 0.049414936
-0.040859386 0.055671193 -0.05930676 -0.06359509 0.058905225 0.035812672 0.021150943 -0.06993343
0.059534676 0.078325905 -0.03668546 0.024968056 0.0001543839 0.03656843 0.0049454267 -0.017028075
0.032493375 0.06526079 -0.025714403 0.018849587 -0.085518084 -0.028360056 0.07995969 0.078766905
-0.046057116 0.013362964 -0.00021244118 -0.07773705 0.042685423 -0.048215277 -0.08807984 0.03408776
-0.056252133 0.071903095 0.038926575 0.07187055 0.06444862 0.06350219 -0.06445805 -0.07635891
-0.03786123 0.07777777 0.03470634 0.029089976 -0.01854905 0.08098639 0.061337855 0.030157102
-0.04266363 -0.011767442 0.08650164 -0.06922144 -0.068134665 0.039462883 0.0838366 0.054009605
0.03160452 0.07127659 0.003289319 -0.047234815 -0.047842562 0.009714269 0.062732644 -0.009211246
0.053385306 -0.016339269 0.0074315537 -0.06897375 -0.042403374 -0.0477713 -0.010357209 0.012240941
0.055295568 0.01894566 -0.077504694 -0.03523542 -0.022636935 -0.07013616 -0.0342274 -0.06093055
-0.05165422 0.072107196 0.07845482 0.0074144523 -0.024453728 -0.07092978 0.060368605 -0.01164881
0.07643158 0.08273399 0.030645248 0.047095656 0.027859056 0.088007726 -0.02721541 0.0782993
-0.086610876 -0.03693989 -0.012217244 0.015741479 -0.013589503 -0.0059123174 0.07316698 -0.053181116
0.03257965 0.049370017 0.004283616 0.05830521 0.014368345 -0.04796801 -0.049794845 0.08221473
-0.08300524 0.01016446 -0.0268946 0.06580547 0.028233152 0.0065847915 0.0529737 -0.016923951
-0.07258116 0.06750748 0.07843124 0.056773383 -0.026130192 -0.08281692 -0.047200833 0.022894884
0.011947662 -0.039955158 -0.07136743 0.045823213 -0.01454926 -0.062251695 0.022670051 -0.0054484177
-0.021448415 0.075189754 -0.02536804 0.048525132 0.0453563 -0.08339865 -0.06966744 0.038156595
00000000: f5eb 863d 5281 abba a886 593d f517 3f3d
00000010: 2256 843d f452 a53d 2221 b7bc 8412 0fbd
00000020: 4b56 36bd f73d 45bd 8a14 443c 8c06 e239
00000030: ae10 2dbd eb0b 143d 8c5c a0bd 13b8 0cbd
00000040: e45d 503d 2062 b1bd 9571 173d 6167 d9bc
00000050: 1f20 d83c 8b95 a93d a0d3 15bd e033 2abd
00000060: 60a8 033d bc99 afbd 5f33 b6bc a1ab f4bc
00000070: a7f9 0d3d ed61 aebc 2ccd 523d 7bd9 ac3d
00000080: 5711 ed3c 4cf1 853d 2b19 1e3d 0f04 b3bd
00000090: d173 92bd 6fd6 15bd 4020 243d 4cce fd3c
000000a0: c0a4 5abd e473 4ebd 4d6f 143c d705 acbd
000000b0: 2b44 18bd a36c b0bd ead3 04bd d508 973d
000000c0: aeb0 76bd 03e6 c13c aea0 173d bb2a 3abd
000000d0: 4330 ce3c 3587 0c3c dfb3 3fbd d019 bdbc
000000e0: 21a0 28bd 8b2a 0ebd 130d 1d3c 4ec0 21bd
000000f0: bd00 0dbd 8de6 803c e172 77bd 86d2 60bd
00000100: 7e74 993d f106 9b3d 91c3 4bbd e850 993d
00000110: dfa2 a63d 1f55 69bd 4d4f 233d e1ab 12bd
00000120: 157a 29bd ea57 35bd 9af4 823d e900 eb3c
00000130: 2169 903d dd1b 5b3d 4490 993c fcf7 d03c
00000140: 7bee 83bd 0c15 4a3d 8841 08bc 9526 353d
00000150: 9dd7 76bc 469f 55bd c8ff 01bd 26fe 6cbd
00000160: 6388 8e3b 443b adbd 2e8b 0dbd 5f89 873d
00000170: bde1 883d a236 e63c ced1 963d bcd5 7abd
00000180: 5c57 ddbc fe8e d63a 6c69 46bd b5d4 0fbd
00000190: 86a7 5e3b 576b 1dbc 4ab1 47bd 4157 b23d
000001a0: 30b2 25bd 7817 13bc bc83 853d bf70 d5bc
000001b0: aa8c 32bc 3303 93bd d80c cdbc 5167 4a3d
000001c0: 2c5c 27bd 7a07 643d a5eb 72bd 243e 82bd
000001d0: 9b46 713d 4fb0 123d be44 ad3c 4239 8fbd
000001e0: a2da 733d 5569 a03d 7e43 16bd cf89 cc3c
000001f0: 1de2 2139 c7c8 153d 3f0d a23b 767e 8bbc
00000200: c617 053d 73a7 853d 03a7 d2bc 736a 9a3c
00000210: 1b24 afbd 5953 e8bc e8c1 a33d 8b50 a13d
00000220: 63a6 3cbd 55f0 5a3c bfc2 5eb9 9a34 9fbd
00000230: e9d6 2e3d 627d 45bd 3463 b4bd 9b9f 0b3d
00000240: a368 66bd ee41 933d 7971 1f3d de30 933d
00000250: a3fd 833d 700d 823d 9502 84bd 0f62 9cbd
00000260: 6114 1bbd f449 9f3d 3c28 0e3d 1a4e ee3c
00000270: 2df4 97bc 31dc a53d 673d 7b3d 070c f73c
00000280: 0fc0 2ebd 3bcc 40bc c627 b13d f8c3 8dbd
00000290: 308a 8bbd d5a3 213d 86b2 ab3d 2d39 5d3d
000002a0: be73 013d 76f9 913d 9e91 573b 4b79 41bd
000002b0: 90f6 43bd 9928 1f3c f979 803d c4ea 16bc
000002c0: 8daa 5a3d eed9 85bc 6484 f33b 1c42 8dbd
000002d0: 29af 2dbd d7ab 43bd 48b1 29bc 3a8e 483c
000002e0: 9b7d 623d ee33 9b3c c8ba 9ebd 0453 10bd
000002f0: 1871 b9bc 8ca3 8fbd 0832 0cbd 5092 79bd
00000300: 6093 53bd f0ac 933d ecac a03d eff4 f23b
00000310: 2f53 c8bc a243 91bd 1245 773d a6da 3ebc
00000320: 2988 9c3d 7070 a93d be0b fb3c 60e7 403d
00000330: ad38 e43c 653d b43d daf2 debc 625b a03d
00000340: 0b61 b1bd 484e 17bd d62a 48bc 46f4 803c
00000350: 82a6 5ebc 1dbc c1bb 92d8 953d 71d4 59bd
00000360: 3d72 053d 3738 4a3d 935d 8c3b 72d1 6e3d
00000370: 3569 6b3c 1b7a 44bd aef5 4bbd 3260 a83d
00000380: a7fe a9bd d688 263c 1052 dcbc 05c5 863d
00000390: 3649 e73c 3cc5 d73b f3fa 583d 19a4 8abc
000003a0: 6ea5 94bd 5d41 8a3d 8fa0 a03d 358b 683d
000003b0: fc0e d6bc eb9b a9bd a955 41bd 0d8e bb3c
000003c0: 20c0 433c 05a8 23bd 1629 92bd 1fb1 3b3d
000003d0: 0560 6ebc a2fb 7ebd 8bb6 b93c a488 b2bb
000003e0: 96b4 afbc 16fd 993d a3d0 cfbc 4ac2 463d
000003f0: 87c7 393d e9cc aabd cead 8ebd 174a 1c3d

value.0.bias f4 [64]
0.048788454 -0.07202366 -0.08515209 -0.07506345 -0.007685825 0.016460853 -0.002364649 0.056689776
0.056409393 0.028184861 0.08334445 0.0066014817 -0.045376908 0.08187178 0.03087127 -0.018334279
0.06384449 -0.034414764 0.010329739 -0.05647081 -0.010790911 0.027713269 0.013794874 0.054436985
-0.08218659 0.028534384 0.012817868 0.033358652 -0.07930448 0.05172944 -0.06186766 -0.024387546
-0.08243873 0.08603691 -0.019513674 -0.06175569 0.06833711 -0.0032164473 0.08586476 0.08680673
-0.081468455 -0.02021485 0.08340485 -0.08531532 0.08439002 0.00022593871 0.05571473 0.03002455
-0.05221442 0.0020696737 -0.04510503 -0.004705822 -0.04364008 -0.0077510793 -0.07021467 0.07490889
0.08668808 -0.03788853 0.084249265 -0.07068331 0.053554967 -0.029662183 -0.05793573 0.041993696
00000000: 67d6 473d 2481 93bd 3864 aebd deba 99bd
00000010: 60d9 fbbb e9d8 863c 3af8 1abb 8a33 683d
00000020: 890d 673d f0e3 e63c 7fb0 aa3d 3e51 d83b
00000030: 23dd 39bd 64ac a73d bfe5 fc3c c531 96bc
00000040: e6c0 823d 7ff6 0cbd 113e 293c f04d 67bd
00000050: 5ccc 30bc f006 e33c e503 623c 51f9 5e3d
00000060: 7151 a8bd f1c0 e93c 0902 523c 15a3 083d
00000070: 636a a2bd 40e2 533d f268 7dbd 64c8 c7bc
00000080: a3d5 a8bd 1f34 b03d 24db 9fbc 89f3 7cbd
00000090: 54f4 8b3d 08cb 52bb ddd9 af3d bac7 b13d
000000a0: efd8 a6bd 9d99 a5bc 29d0 aa3d ccb9 aebd
000000b0: add4 ac3d f6e9 6c39 2135 643d 0cf6 f53c
000000c0: cade 55bd 5da3 073b 0dc0 38bd 4c33 9abb
000000d0: f1bf 32bd c4fc fdbb b5cc 8fbd d569 993d
000000e0: 8589 b13d 0131 1bbd e18a ac3d 69c2 90bd
000000f0: 745c 5b3d 1bfe f2bc 044e 6dbd 9501 2c3d

value.2.weight f4 [1, 64]
0.05944699 -0.07941674 0.06929426 0.07639088 -0.08072148 -0.10126719 -0.10167375 0.075494215
0.0020504296 -0.0036252737 -0.001213491 -0.045980707 0.07901707 -0.018604472 0.10718693 0.06849313
0.0049730986 0.059237435 0.0466965 0.094484195 0.12396057 -0.09717427 0.08482508 0.029304504
-0.120730355 0.044216722 -0.039475173 -0.00178428 0.01900585 -0.11915901 0.07707234 -0.06007035
0.021238849 -0.124037445 0.08537826 -0.1003142 -0.0033006668 -0.051104516 -0.027296856 -0.02242063
-0.0974585 -0.08047649 0.04756227 -0.02493015 0.08596109 0.102789894 0.10211839 0.1074433
0.03141351 0.093472034 0.014874876 -0.057935655 -0.121191815 0.10755889 0.026393369 0.06731781
0.0021228641 -0.045435786 0.10245411 0.05212617 0.020373598 -0.04173267 -0.10620201 -0.124495625
00000000: b07e 733d 3ea5 a2bd 26ea 8d3d d272 9c3d
00000010: 4e51 a5bd 2c65 cfbd 543a d0bd b69c 9a3d
00000020: 8060 063b 0096 6dbb 000e 9fba 4456 3cbd
00000030: b4d3 a13d 6868 98bc d284 db3d 2046 8c3d
00000040: 60f5 a23b f4a2 723d d444 3f3d ee80 c13d
00000050: 0adf fd3d 4e03 c7bd c6b8 ad3d 0010 f03c
00000060: 7a41 f7bd 981c 353d b8b0 21bd 80de e9ba
00000070: 28b2 9b3c a409 f4bd 1ad8 9d3d 540c 76bd
00000080: 18fd ad3c 5807 febd ccda ae3d 8871 cdbd
00000090: 0050 58bb f852 51bd a89d dfbc 78ab b7bc
000000a0: 5298 c7bd dcd0 a4bd a8d0 423d 503a ccbc
000000b0: 5e0c b03d 8283 d23d 7223 d13d 3c0b dc3d
000000c0: 74ab 003d 446e bf3d c0b5 733c f04d 6dbd
000000d0: 6a33 f8bd d647 dc3d e836 d83c ecdd 893d
000000e0: c01f 0b3b e01a 3abd 76d3 d13d 4082 553d
000000f0: 88e6 a63c e0ef 2abd 7080 d9bd 90f7 febd
